DDPG/saved_models/actor.pt (torch_old, 19462 bytes, 5 tensors)

fc1.weight f4 [64, 5]
000000 fb 3f 46 3f 04 1c a9 3d 0d a8 ea 3e 99 46 b7 3d
       0.77441376 0.08257297 0.45831338 0.08949012
000010 8c 19 3d be 34 d5 b3 be 9a 70 05 bf 8f 9e 3c bd
       -0.18466777 -0.351236 -0.5212494 -0.04604965
000020 52 36 cd 3e 05 23 90 be 27 9a 45 be d5 6b 6b 3d
       0.40080506 -0.28151718 -0.19297086 0.057475884
000030 cf f8 50 bc 26 ad 1f be 06 f7 ef 3e 43 a6 c4 be
       -0.012754633 -0.15593395 0.4686815 -0.38408098
000040 51 d1 99 3e 22 7a 8c be b8 86 4c be ed 4e d2 3e
       0.30042508 -0.2743693 -0.19973266 0.4107584
000050 e2 7b e2 3e 72 89 be be e4 48 82 be bb 34 06 bc
       0.4423514 -0.37214237 -0.25446236 -0.008191283
000060 e3 d4 0c 3e bf cc 84 be 9e 4c 82 3d 78 f9 f0 bc
       0.13753085 -0.2593746 0.0636227 -0.029415831
000070 eb 88 f3 3e a1 43 5e be dd df ab be d5 88 52 3e
       0.47565398 -0.21705486 -0.33569232 0.2056001
000080 18 91 22 be 7d 47 86 be 6f d2 d9 3e f6 22 ee bd
       -0.15875661 -0.26226416 0.4254336 -0.11627762
000090 43 6f 54 3e 27 06 d2 be d8 12 06 3f bc 5d a7 3e
       0.20745568 -0.4102032 0.52372503 0.326887
0000a0 e3 a3 88 3e 78 26 48 3e c9 e7 5c 3e 6d e8 05 be
       0.26687536 0.19545925 0.21572794 -0.13076945
0000b0 ad 76 d4 be a8 ef ef bd 57 44 c9 3e e6 7c b0 be
       -0.41496792 -0.11715633 0.39309952 -0.3447029
0000c0 a9 d2 05 3e 10 50 3f be 21 6b 0f bf 13 ba 04 bd
       0.13068642 -0.18682885 -0.5602284 -0.032404017
0000d0 b6 0a 08 be 78 7d fc bd 67 97 8c 3e 82 a4 ce be
       -0.13285336 -0.12328619 0.2745926 -0.40359885
0000e0 bd 59 c3 be b9 e5 dd be 5d 2e 84 3e 28 4d 8a 3e
       -0.38154402 -0.43339327 0.25816622 0.2701199
0000f0 6f 1c 2d bd 30 ce 30 3d 52 3f 30 be 95 7a e0 3e
       -0.042263445 0.043165386 -0.17211655 0.43843523
000100 38 47 ab bd e7 bb d7 be b7 9b f3 be 70 97 87 3e
       -0.08363193 -0.42135546 -0.47579738 0.26482725
000110 3e e6 cd be 94 d7 e8 3e 2c e5 4c be 62 c4 46 be
       -0.40214723 0.45476973 -0.20009297 -0.19410852
000120 25 86 11 3e 97 71 d7 3e af 4c 97 be cd eb f5 be
       0.14211328 0.4207885 -0.29550692 -0.48031464
000130 61 0e c0 3e 7e bf b8 3d d1 c3 95 3e a1 56 b0 3e
       0.3751097 0.09020899 0.2925096 0.34441093
000140 82 08 d4 be 1c 84 d3 3e 24 1c b4 3d 5a 37 b4 be
       -0.4141274 0.4131173 0.0879443 -0.3519848
000150 ff d5 88 3e 64 85 d4 be b0 29 f5 be b7 17 b9 3d
       0.26725766 -0.4150802 -0.47883368 0.09037726
000160 b9 be 05 3d d0 b6 f5 be 80 91 bc be 69 84 a6 be
       0.03265259 -0.47991037 -0.36829758 -0.32522896
000170 eb c0 5e 3e 58 48 b2 be 68 21 b7 be 99 a3 da 3e
       0.2175328 -0.3482082 -0.35767674 0.4270294
000180 c6 e2 9d 3e b8 ef ab be 97 0b c3 be 70 7c a5 be
       0.30837077 -0.33581328 -0.3809478 -0.323215
000190 4a b7 ee be 0a 6c 0b bf d2 e3 8b bc b0 9c 26 3f
       -0.46624213 -0.5446173 -0.017076407 0.65082836
0001a0 bd 5d 31 be 3d 98 e1 3e a6 c5 d8 be 33 aa 88 be
       -0.17320915 0.4406146 -0.42338294 -0.26692352
0001b0 e3 40 24 3d db 5d 01 bd 74 ef 3f 3e 27 d2 07 be
       0.040100943 -0.03158365 0.18743688 -0.1326376
0001c0 b4 3f 5b bd 52 4b 01 be a6 2a ab 3e bb f6 c1 3d
       -0.05352755 -0.12626389 0.33430976 0.09470888
0001d0 26 c9 a3 be f6 ee 7c be a3 aa ba be 27 2f a9 3d
       -0.31989402 -0.24700531 -0.3645831 0.08260947
0001e0 82 89 7a be 5e e6 81 3c 64 77 fe be 85 05 3e 3f
       -0.24466518 0.015856918 -0.49700463 0.7422717
0001f0 47 c2 cc bc a3 78 e4 be 55 52 1f bf 63 b7 d9 bc
       -0.024994982 -0.4462329 -0.62235004 -0.026576703
000200 c6 fd b4 3e fe 38 4c be af 5f 06 be 86 dc b4 3e
       0.35349864 -0.19943616 -0.13122438 0.35324496
000210 26 63 c9 be c0 6f 90 3e 39 46 22 be 0e 06 d3 be
       -0.39333457 0.28210258 -0.158471 -0.41215557
000220 c6 99 bf 3e 1b 37 00 3e 34 54 11 be 32 e8 ee 3d
       0.37422007 0.12521021 -0.14192277 0.116653815
000230 fb e8 e2 bd b8 7e d5 3e da 3a 0b be 7e 04 0b 3f
       -0.11079594 0.4169824 -0.13596669 0.5430373
000240 e3 3f 43 3e f0 58 0e 3f 78 80 d9 3c 2b 0c d2 3d
       0.1906734 0.5560446 0.026550516 0.10256227
000250 16 24 88 bc be da a5 3e bc fd d7 be 96 a5 b8 3e
       -0.01661877 0.3239345 -0.4218577 0.36063832
000260 5f 53 e4 3e 5e 4d d0 be 53 0e a6 3e 11 ba 16 3e
       0.44594857 -0.40684026 0.32432804 0.14719416
000270 7d 06 4e 3e 6b f4 e1 be c9 53 3e be 41 83 8e be
       0.20119663 -0.4413179 -0.18586649 -0.27834514
000280 ed d8 10 bf 0d 92 0b be c0 1d 92 bd 08 bb 1a 3f
       -0.56581 -0.13629933 -0.071345806 0.6044164
000290 55 c8 63 be 3c 7d 0f bf 7f 8b 85 be 30 a7 93 3d
       -0.2224439 -0.5605047 -0.2608299 0.07209623
0002a0 bd 74 54 be d1 2e ea 3c b2 f3 7f 3d da 32 d1 3e
       -0.20747657 0.028586777 0.062488265 0.4085911
0002b0 88 bf 12 be c1 5a 3b be a3 45 eb 3e 23 4c 76 3e
       -0.14330876 -0.18296339 0.45951566 0.24052481
0002c0 0e d7 00 bd 16 3a d0 3e 6a 7e e0 be b3 d1 dd be
       -0.031455092 0.40669316 -0.43846446 -0.4332405
0002d0 c7 95 5c 3e c3 94 12 3e 2a c1 fa bd be 57 5f be
       0.2154151 0.1431456 -0.12243874 -0.21810815
0002e0 92 ed 15 bc 9e cb 5b be 1c 72 db bc 06 e9 86 be
       -0.009150879 -0.21464393 -0.02678781 -0.26349658
0002f0 60 7b 9a 3e 8f 70 28 bd 15 cf 87 3e 26 b7 18 be
       0.30172253 -0.04112297 0.2652518 -0.14913616
000300 25 5b 0f 3f bc 4e 62 be 69 09 4e 3b 7f aa ba 3e
       0.5599845 -0.22100347 0.0031438714 0.36458203
000310 d8 29 a7 3e 74 47 43 3e d0 18 49 3e 9c 32 46 3e
       0.32649112 0.19070226 0.19638371 0.19355243
000320 91 b8 09 bf db 07 29 bf 11 b2 15 be b6 bc 4c 3d
       -0.5379725 -0.6602761 -0.14618708 0.049984656
000330 d5 9b ba be 90 3d 86 bd 17 d6 15 3e 9f da 89 3e
       -0.36447015 -0.06554711 0.1463245 0.26924607
000340 96 38 59 be 0b 00 88 be 24 4a c6 be 19 ff 32 be
       -0.21212992 -0.26562533 -0.3872844 -0.17480125
000350 99 b8 4e be 48 b4 56 be ee 1d bc be 70 8f 99 bd
       -0.20187606 -0.2096721 -0.36741585 -0.07498062
000360 b6 f5 1b be 82 3c bc be 7a 36 c9 bd 8e 09 aa be
       -0.1523045 -0.36764914 -0.09824844 -0.33210415
000370 01 ba 1a be 1c c3 90 be c1 6a 85 be 81 03 f4 be
       -0.15110017 -0.28273857 -0.2605801 -0.47658923
000380 a0 3f 82 be dd 26 b9 3d d7 93 62 3e 6f 54 17 bf
       -0.25439167 0.09040616 0.22126709 -0.5911321
000390 98 53 be be c7 2d cc be bf 37 81 be 62 f3 ce 3e
       -0.37173152 -0.39878675 -0.25237843 0.4042006
0003a0 0f 91 fa 3e ab b0 0d 3f 16 3e 97 be 08 eb 95 be
       0.48938796 0.553477 -0.29539555 -0.29280877
0003b0 e8 98 42 3e a1 dd 0b bf 3f 62 db be 79 ba 75 be
       0.19003642 -0.54635054 -0.42848393 -0.23996915
0003c0 40 6e 00 bf c6 c5 de 3e b5 7c 1d 3e 42 86 8b be
       -0.5016823 0.43510264 0.15379603 -0.27250868
0003d0 37 91 d6 3e 0d 02 37 3d e2 ef 01 be 62 d6 11 be
       0.41907665 0.04467969 -0.12689164 -0.14241937
0003e0 89 38 b6 3e 8c 8c d4 bd 91 4d 1a 3f 4b 90 72 3e
       0.35590008 -0.1037837 0.60274607 0.23687856
0003f0 c1 cc 80 3e 7a 53 4a 3e 65 e3 ba 3e fd be 0d bf
       0.25156215 0.19758406 0.36501613 -0.5536955

fc1.bias f4 [64]
000000 18 1f ae bd b7 43 03 be 5f 60 d5 3e 0f 3c 36 3e
       -0.085020244 -0.128188 0.41675088 0.17796348
000010 f0 00 f6 3d 62 01 24 be d2 17 a1 be 61 e7 bd be
       0.120118976 -0.16016153 -0.31463486 -0.3709059
000020 5e 0c 16 be d2 f9 d3 be c8 fd 05 3f b2 d2 98 be
       -0.14653155 -0.41401535 0.52340364 -0.29848248
000030 5e 51 b9 bc 8b 27 0e be f0 05 93 be 6f b8 34 be
       -0.022621807 -0.13882272 -0.28715467 -0.17648481
000040 14 02 0a be e8 1d ea be 39 c4 92 3e 84 d5 90 3e
       -0.13477355 -0.45725942 0.2866533 0.282879
000050 66 d9 d1 3e 52 fe e7 3e 78 91 95 be 85 de c5 3e
       0.40986174 0.45311219 -0.29212546 0.3864633
000060 6e 02 01 b8 fb ed 2c 3e f2 12 c8 bd aa af a4 3e
       -3.075826e-05 0.16887657 -0.097692385 0.3216527
000070 f0 de 6f be 6b 3d b7 be 0b 50 9a 3d 9b a7 40 3e
       -0.23424888 -0.35789046 0.07534798 0.18813936
000080 3d 7f e0 3e 9f ef b3 3e a6 c2 d9 3c c5 8c 7d be
       0.43847075 0.35143754 0.026582073 -0.2476073
000090 27 19 a1 3e 2f a2 0a 3e 6b cc fb 3c 74 e0 ad 3e
       0.31464502 0.1353843 0.030737123 0.33960307
0000a0 59 cf 4e 3e 59 04 61 be 5b 64 0c be 02 20 a3 3e
       0.20196284 -0.21974315 -0.13710158 0.31860358
0000b0 35 e2 61 be c8 b2 c3 bc 49 27 8e 3e 7a 03 ad bd
       -0.22058947 -0.02388896 0.27764347 -0.08447929
0000c0 e1 60 97 3e 8b b2 b5 be 1b e6 47 3e 0d 6c e1 3e
       0.295661 -0.3548778 0.19521372 0.4402775
0000d0 99 b8 9e 3e 0e 23 38 be 4e 72 dd be 65 58 2f be
       0.31000212 -0.17982122 -0.4325127 -0.17123564
0000e0 7b 1e c7 3d a9 41 d8 3d 11 d3 06 bc 67 2d 5a 3e
       0.097226106 0.10559399 -0.008229033 0.21306382
0000f0 14 85 8b bd 31 21 44 be 15 4d e7 bd 19 0c 87 3d
       -0.06812492 -0.19153287 -0.11293999 0.06594104

fc2.weight f4 [64, 64]
000000 17 bc ca bd b9 a1 9b 3e 77 38 64 3e 12 e3 f9 3d
       -0.098991565 0.30396822 0.22287165 0.12201513
000010 80 b2 bb bd 6a 57 a3 3e d2 a4 66 3e b7 c0 73 3e
       -0.091649055 0.3190263 0.22523811 0.23803984
000020 1d d4 57 bd 38 1b f6 3d e5 f3 6d 3e cd b6 2e bb
       -0.05269252 0.1201691 0.2323757 -0.002665925
000030 cd 1f af 3e 70 20 be 3d 7d dd 9f 3e 2d 19 36 3e
       0.3420395 0.09283531 0.3122367 0.17783041
000040 a5 d3 2e 3d 81 b3 ff 3d a2 7e 2e 3e 62 1d 83 be
       0.04268231 0.124854095 0.17040494 -0.25608355
000050 46 7c b7 3e 3e 21 92 3c 5f 82 64 bc 59 25 82 3c
       0.35837 0.017838117 -0.0139470985 0.01588695
000060 6b 23 9f 3e 00 44 9b 3e e1 b2 00 3e 33 1f c4 3d
       0.3108171 0.30325317 0.12568237 0.09576263
000070 14 96 c2 3d 88 1a 82 3b 32 1a 73 3e d0 db 5e be
       0.095012814 0.003970448 0.23740461 -0.2176354
000080 ab 0b 72 3e f9 4f 18 3c 25 4c 32 3e 91 bf 25 3d
       0.23637263 0.009296411 0.1741186 0.040465895
000090 0e 1e 41 be ae 56 3e 3e 61 83 22 3e 36 5a 69 be
       -0.18859121 0.18587753 0.1587043 -0.22788319
0000a0 9d bb 0d 3d 51 ec f1 3c 70 64 d9 bb a6 0a c4 3d
       0.03460275 0.02953163 -0.0066342875 0.095723435
0000b0 d3 f9 0b be 36 7f 4d be 90 47 ec 3d af 73 e5 bc
       -0.13669519 -0.20068058 0.11537087 -0.028009264
0000c0 3d 37 b9 3d 0d 62 14 3e 36 08 45 be b7 58 48 3e
       0.09043739 0.14490528 -0.19241413 0.19565092
0000d0 66 37 92 3d cd 42 7d be 79 88 f3 bc 58 76 24 3e
       0.07139473 -0.24732514 -0.029728161 0.1606077
0000e0 89 ed 25 3e 5f 60 ad bd 52 84 a6 bd 68 52 1e be
       0.16203894 -0.08465647 -0.08130707 -0.15461123
0000f0 70 73 7c bd fb 78 5f 3e 56 39 71 3e 01 db ae 3d
       -0.061633527 0.21823494 0.23557028 0.085378654
000100 bd bd 13 be 8e a7 41 3d 7e ac c8 bd 40 be 7b 3b
       -0.14427848 0.047278933 -0.09798525 0.0038412958
000110 90 ff 5f bd d6 1b 16 3d 10 f9 7b bc a0 dd 17 bd
       -0.054687083 0.03664764 -0.015379205 -0.037076592
000120 88 e6 ce bd 6c a0 0b bd d4 83 51 bd 20 39 24 3d
       -0.10102564 -0.034088537 -0.05115111 0.04009354
000130 1c 3d 7f 3d 80 eb 1f 3b cc db 92 3d 48 70 7d 3d
       0.062314138 0.0024401844 0.07170829 0.061874658
000140 f8 f7 55 3d 53 35 d9 bd 62 5f 88 bc c9 b4 12 bd
       0.052238435 -0.10605874 -0.016647045 -0.03581694
000150 28 85 d0 3c d3 9e 17 3d 32 7b f6 bd 41 f5 8c 3d
       0.025454119 0.0370167 -0.120352164 0.06882716
000160 38 20 85 3c 80 0c da bd 30 3d 8c bc 02 61 d1 bc
       0.016250715 -0.106469154 -0.01711902 -0.025558952
000170 66 bb 95 3d d6 1e 98 bd 0c 90 68 3d 4d 22 9d bd
       0.07311134 -0.074277565 0.056778 -0.07672558
000180 a3 dd ea bc 7e 84 b0 bd 30 70 52 bc cf 47 88 3d
       -0.028670138 -0.08619021 -0.01284413 0.066543214
000190 7c 47 e9 bd 7e 1b 0a be 79 85 f6 bd 8a bb 88 3d
       -0.11390588 -0.1348705 -0.12037177 0.06676395
0001a0 ee 60 87 3c 30 78 80 3d 66 a5 09 bd cd 48 ec bd
       0.016525712 0.06272924 -0.033605002 -0.11537323
0001b0 73 48 cf 3c d1 50 08 3b 2d ee 03 be ca 65 c7 bd
       0.025303101 0.0020800123 -0.12883826 -0.097362116
0001c0 6c 7e 6a 3d 72 bd e6 bd 27 5b 7d bd a0 f8 23 3d
       0.05724947 -0.112666026 -0.061854508 0.04003203
0001d0 23 2d 83 3d 43 71 9f bd 5b 4a 11 3c 50 f0 75 bd
       0.064050935 -0.07785275 0.008867825 -0.060043633
0001e0 78 19 f3 bd 92 ad a3 bb ce 65 8c bd 68 53 be bc
       -0.11870092 -0.0049950564 -0.06855355 -0.02323313
0001f0 2e 04 92 bd 40 ff 8d 3d 19 ad ce 3d 5a 81 b3 bd
       -0.071297035 0.06933451 0.100916095 -0.08764906
000200 d1 42 74 3e 2d 47 e5 bd 2a f2 58 3e 29 f6 83 bd
       0.23853613 -0.11195216 0.21186128 -0.06443436
000210 cd f2 b1 3d 43 82 93 ba 1e 5a 5b bd 3b 6e 62 3d
       0.08688889 -0.0011254031 -0.05355274 0.055280905
000220 e9 12 00 3d 81 cd e1 bb 85 c5 45 be 1a 7a c1 bd
       0.031268034 -0.006890953 -0.19313629 -0.09447117
000230 0f 15 7f 3c e5 5a ff 3d 84 5f b0 3d e0 08 49 3a
       0.015568986 0.12468509 0.08611968 0.0007668864
000240 5c c1 89 bd 82 a0 69 3c a4 ca bc bb 0b df 9c 3a
       -0.067263335 0.014259459 -0.0057614613 0.0011968327
000250 c9 bf 91 bd 89 56 8a 3d f2 15 ba 3d 90 41 c3 3b
       -0.07116658 0.067547865 0.09086217 0.0059587434
000260 31 f6 a1 bc e1 d2 e2 bd 7b ec a1 3c a7 16 ea bd
       -0.019770714 -0.11075378 0.019766083 -0.11430102
000270 70 7d a5 3c ad 86 30 3e c8 74 23 be 35 70 78 3d
       0.020201415 0.17238875 -0.15962517 0.060653884
000280 60 99 51 be 9b 21 cc be d7 05 d0 3c 6a fb f3 bc
       -0.20468664 -0.3986939 0.02539341 -0.02978297
000290 8b 75 79 3d 5a b6 9f ba c5 99 58 3e e1 24 05 3e
       0.060903113 -0.0012185082 0.21152408 0.1300235
0002a0 8b 57 c3 bd a0 28 4c be 9d 8e 34 bd 59 62 83 bd
       -0.09538182 -0.19937372 -0.04408132 -0.06415243
0002b0 7a 6b 77 be 17 30 8d bd 80 72 24 3d 83 6e ad bd
       -0.24162093 -0.06893938 0.04014826 -0.08468344
0002c0 63 de 76 bd 1f 5a b1 3d d2 f9 83 3e be 2e 31 bd
       -0.06027068 0.08659767 0.25776535 -0.043257467
0002d0 93 6f 32 3e 99 53 63 3e bd 45 5d 3d af 72 27 bd
       0.17425375 0.22199859 0.054021586 -0.040880855
0002e0 9b 1f 5e bd 39 91 81 bd a3 c5 8c 3e 51 67 70 3e
       -0.05422936 -0.06326527 0.27494535 0.23476912
0002f0 68 66 df 3c fa 4d b6 bd 35 f8 f6 bc a8 c3 e7 bd
       0.02727051 -0.089015916 -0.030147651 -0.11316615
000300 e1 90 8d bc 51 7f 9d 3b 73 86 b8 bc b7 56 b4 bc
       -0.017280998 0.004806437 -0.022525048 -0.022014005
000310 ae 60 2c bd d4 3e e5 bd 4a f3 3b be 63 97 34 3d
       -0.04208439 -0.11193624 -0.18354526 0.044089686
000320 7e 10 d7 bc 67 10 aa 3d 16 cc 99 3d dd 90 2d be
       -0.026252981 0.0830391 0.075096294 -0.16949792
000330 51 bf e8 bd 97 98 22 be f1 07 4d 3d 5f 39 21 be
       -0.11364616 -0.15878521 0.0500564 -0.15744542
000340 61 d6 1c 3d 85 be db bb ab 55 6d bc 89 63 77 3d
       0.038290385 -0.0067060613 -0.014485757 0.06039766
000350 be 86 10 be 51 a4 0a bd b1 1a da 3b e0 56 55 3d
       -0.141139 -0.03384811 0.006656014 0.052084804
000360 17 e6 aa bd 07 b9 40 bd d5 80 bf 3d 7f ab 76 3d
       -0.083446674 -0.047051456 0.09350745 0.060222145
000370 07 80 43 3d 4d 47 ed bd 81 25 ac 3c dd ee 34 3c
       0.04772952 -0.11585865 0.021013977 0.011043278
000380 74 44 19 bd 38 e6 94 bc 1c e5 13 be 22 03 23 bd
       -0.037418798 -0.018176183 -0.14442867 -0.03979791
000390 35 9d 4e 3d 5d cf 14 be 50 3e ed 3d 00 34 9e bd
       0.050442893 -0.14532228 0.11584151 -0.07724762
0003a0 e1 bf 90 bd f1 78 0d 3d 98 6b 04 3d c1 7c ee bd
       -0.07067848 0.034539167 0.032329172 -0.11644889
0003b0 0e 4f 5d bd bd 42 93 3d b5 b1 00 be 32 8b a5 bc
       -0.05403047 0.07190464 -0.1256779 -0.020207975
0003c0 0d d5 aa bd b4 95 69 3d 9b 6a 2d be 33 bb 89 3d
       -0.083414175 0.057027534 -0.16935198 0.067251585
0003d0 3d 19 e0 ba 1a 6f 5f 3c 3f a7 14 be cd 97 b0 bb
       -0.0017097365 0.0136373285 -0.14516924 -0.00538919
0003e0 73 1e da bd b6 ef 88 bc e6 ba 7a bd 5d d5 0d be
       -0.10650339 -0.016715866 -0.061213396 -0.13850923
0003f0 37 d1 92 bd aa 2e 49 3d bf 02 18 be 64 79 76 3d
       -0.07168811 0.049116768 -0.14844798 0.06017436

fc2.bias f4 [64]
000000 d0 20 56 3c c7 45 49 bd b6 48 b2 3d 87 d5 0a be
       0.013069347 -0.04913881 0.08705275 -0.13558017
000010 21 bc 59 3e 66 94 d2 bd 7d 8b 5b be b7 ec de bd
       0.21263172 -0.10282211 -0.2143993 -0.108849935
000020 47 5f 84 bd 56 00 5b 3d ef 2d 4f bc 1c 20 74 bd
       -0.06463485 0.053467117 -0.012645229 -0.059600934
000030 da d7 80 3c 69 70 e5 bd ea 7f a4 bd 66 85 29 3d
       0.015727926 -0.11203081 -0.0803221 0.041386984
000040 5f a5 7a 3d f0 b6 fc bc 4c fd a1 bd cb b9 0a 3d
       0.061192866 -0.03084895 -0.07909641 0.033868592
000050 82 ce e4 3d ff 64 a1 bb 80 c8 d0 bd 07 f6 d0 3d
       0.11172201 -0.0049253698 -0.10194492 0.10203176
000060 cf 28 12 bc ac 41 8c 3c 91 bf 30 bc 00 00 20 bc
       -0.008920862 0.017121159 -0.0107878605 -0.009765625
000070 42 b1 db bd f2 47 2a bc 08 95 27 3d 89 5d d8 3d
       -0.107271686 -0.01039313 0.04091361 0.105647154
000080 6e e4 15 3e a4 a1 14 3e 8f 2b 29 3b 55 ec 03 3c
       0.1463792 0.14514786 0.0025813316 0.008051951
000090 08 94 b2 3d e5 11 37 bd ad 59 cd bd 9c af cf bc
       0.08719641 -0.0446948 -0.1002687 -0.025352292
0000a0 48 d4 b9 bc 7d 65 75 bd f7 a1 2e be 97 11 96 bd
       -0.022684231 -0.05991124 -0.17053972 -0.07327574
0000b0 0f b8 d6 3d 70 af 52 bd 7a b6 1a bd 8e 56 2d 3d
       0.10484325 -0.05143684 -0.03777168 0.042318873
0000c0 30 bc 5a bc 35 bd 4c 3e 5b 04 dd 3d 99 41 2a be
       -0.013350531 0.19994052 0.10791846 -0.16626586
0000d0 d0 03 e2 bd 03 1e fa bd 09 13 0f 3d 8c bb 3b be
       -0.110358834 -0.122127555 0.034930263 -0.18333262
0000e0 80 59 6f be 56 85 2a bc f4 7f 04 bc 0a 5f 22 bc
       -0.23373985 -0.010407766 -0.008087147 -0.009910354
0000f0 11 6e 96 3e f7 6e 8c bd f0 34 8f 3a ab fc b2 bc
       0.2938085 -0.06857102 0.0010925811 -0.021848997

fc3.weight f4 [1, 64]
000000 33 a1 af 3e ce 5e da 3d 50 0b 62 be 3c d0 c2 bd
       0.34302673 0.10662614 -0.22074628 -0.09512374
000010 b2 1b 6b be 42 9a 2f 3e 05 db 70 3e 1a d2 3d bd
       -0.22959784 0.17148688 0.2352105 -0.046342947
000020 9c c7 8a 3e ae d4 15 be 20 20 aa 3e b0 c3 d7 bd
       0.27105415 -0.14631912 0.33227634 -0.10535371
000030 50 97 82 3e b3 1e 86 bd fc 3a b7 3e d9 83 76 bd
       0.25506067 -0.06548824 0.3578719 -0.060184333
000040 c1 ea f4 3d 68 dc b3 3e 01 4e 41 3e d7 63 1d 3c
       0.11958838 0.35129094 0.18877412 0.009606323
000050 c5 1b 86 3e 3d 0b c2 bb b8 b3 9c 3e 81 87 54 be
       0.2619306 -0.00592175 0.30605865 -0.20754816
000060 4b 65 0f be d6 de 0d be f8 84 b9 3d 40 e9 7e 3e
       -0.14003484 -0.13854536 0.09058565 0.24893665
000070 7e 81 a5 bd 8e 0f 61 3e 0a ce 84 bd 80 ad a5 3e
       -0.08081339 0.2197859 -0.06484611 0.32358932
000080 89 ce 90 3e 38 29 87 be b4 c0 1d be 4f 07 e7 3e
       0.28282574 -0.26398635 -0.15405542 0.45122764
000090 84 ea 1e bc d4 89 5a bd b1 88 78 bd ea 27 65 be
       -0.009699468 -0.0533541 -0.060677234 -0.22378507
0000a0 de d2 db bd 90 43 4d 3e e7 d7 b2 bd d6 12 46 be
       -0.10733579 0.20045304 -0.08732586 -0.19343123
0000b0 14 dc b1 bd ff ad 78 3e 61 d7 cd bd c4 7c 95 be
       -0.08684555 0.24285124 -0.10050846 -0.2919675
0000c0 b0 2d b9 3c 31 2a 8c be 1c 5b 4f 3e 75 2d 83 bd
       0.022604793 -0.2737594 0.20249599 -0.064051546
0000d0 88 10 d4 bd 49 49 94 3e 6c 18 90 3b 1d 0c 4a 3e
       -0.103547156 0.28962162 0.0043974426 0.19731183
0000e0 c0 c3 51 3e b7 7a b9 bd c9 ff 9a bc c0 55 2b 3d
       0.20484829 -0.09056609 -0.018920796 0.041829824
0000f0 c7 52 5c be 3d 97 c3 bc f3 05 32 be f5 28 e7 3d
       -0.21515952 -0.023875827 -0.17385082 0.11287109
