DDPG/saved_models/actor.pt (torch_old, 19462 bytes, 5 tensors)

fc1.weight f4 [64, 5]
00000000: 37c9 efbe 040f 963f 350e 7b3f 1a6b 303e
00000010: 0f39 1dbe da82 a43f 76ca 84be 5148 6b3f
00000020: b065 88be 84be 763d 33cf eb3e a1aa b73e
00000030: e410 543e 5b5d 803e 2539 303f b205 3d3f
00000040: f1c6 6abf 14c9 0dbe 9b3d 423f 1dd9 aa3e
00000050: d42a 843f 5152 96bd 83ea 60bf b0f3 ae3d
00000060: c496 d43e 6670 703f 10f9 8ebf 2bf1 debd
00000070: bba5 9bbe 0764 b3bc 6862 d2bc a7bd bc3a
00000080: 5eee 9e3f 8e69 4a3e 6db0 32be dcf1 f33e
00000090: 02b6 2bbf 95e2 b4be 58bb c53e d3b9 d33d
000000a0: 9a38 ff3e cc3c 813f f3da bfbe 2cd8 b33e
000000b0: 6218 b83e 85d6 023d 1938 79bf 1334 8abe
000000c0: f67a 053e 957b 7fbe f1ef 5fbe 6a66 59be
000000d0: 1ffa 49bf 2cc5 373f 0e21 e2be 0d12 cb3f
000000e0: 3816 723d 0b40 213f a10f 6cbe 494b b4be
000000f0: bcd1 cd3f e657 663e 0f5e e93f 76df 07bf
00000100: 899c b53e 16d8 253e 060a a03f 1b3e 32be
00000110: 2d8d 23bc f202 ff3d ef4e 7abe 1112 b9bf
00000120: 1ab2 1a3c 4423 65bd f862 9c3e f6a2 71be
00000130: b481 4ebf 1a0e 50bf ad39 f03c 6f4e ec3e
00000140: 5b70 da3e 5a16 14bf c0f7 a3bd 5b37 f43e
00000150: b81f 75be fb08 8f3f 4bc6 2a3f 47d2 c43f
00000160: f33f d4be b992 c2be a79f 153f e70c 86bf
00000170: fdcd c03f ff07 2f3e 6edd 73be 5c9a 1c3f
00000180: 20c7 5ebf 8844 7e3e ec55 51bf 1b93 d1ba
00000190: 361f 033f 5b91 b13e 6a3b 21be 4396 9b3f
000001a0: a8de 5bbe 83dc d53e fa4e c33c 995c 65bd
000001b0: c2b4 85be df87 9ebe 85d6 473f f334 833e
000001c0: 295d 3dbe 2bdf 5dbf ff64 083f fa50 e7be
000001d0: 583a 883e 0a30 4ebf 704f ef3e b7c3 2c3f
000001e0: 18a6 f23d 9f32 433f 53e0 aebf d8fe dd3e
000001f0: ed8b b53d 7518 debe df99 8e3f 994f 713f
00000200: 60c9 38bf 8050 b9be 752f 1fbe 12bd acbe
00000210: 0bec b8bf 03d8 063f f2fe 523e 01ff 853e
00000220: 2c01 293f a44d ba3e 4a75 69bc 65a3 32be
00000230: 2a10 233f 2add 6c3e f895 29bf 97a8 d93e
00000240: 70bd 58bd c0a9 05bf 6b09 e13c adbf 04c0
00000250: 9672 c2bd 7069 eabd e84b 8f3e f744 a43f
00000260: ce01 2f3f 73e5 d7be e016 bebe 2244 c13d
00000270: 1db0 043f d92a 823f f505 b53e 2478 b33e
00000280: 4d0d 493e 24fc 30be 9831 43bd 7e6d 733f
00000290: 9d40 55be 82ba 203f 39eb b1bc 96e8 ec3e
000002a0: 19bb 823f 8e79 8fbe cc90 153f f357 6ebf
000002b0: 8638 e53e b825 3b3f 22c5 0cbf 5f41 8fbe
000002c0: 0be8 6d3e 66d9 06be 1645 1fbe 40ec b7be
000002d0: 1936 5ebf f4c9 3d3f 040a 84be b350 5e3e
000002e0: f58e fdbb 4d4b 9b3f 1070 82be d857 f8be
000002f0: 943e bfbd 5ffb abbe 334d e93e 82b0 af3f
00000300: 9a0e 8cbf 2c54 cc3d b5bb 9c3e ad5f 4f3f
00000310: 5a38 87bf 3c96 08bf 7439 153f d696 e7be
00000320: 3182 523e 6217 afbf 5833 753e c5cf 953e
00000330: fdb9 4fbe 221f 16be 8374 8abf 87b6 603f
00000340: 924f ee3e d027 3abd 8196 cc3f 15ce 04bf
00000350: 9aad 803e 7548 9abe a4e1 b43e 8a2a d4bc
00000360: 7906 9cbf a7f2 e4bf bf40 b33e 7d23 9a3e
00000370: e857 69be bb8f c4be e78a dcbf fe43 bfbe
00000380: 12e4 bb3e 5998 b13f 971b 4abf ef4c 24be
00000390: c953 203e 639b c6be 469f de3f 9af1 41be
000003a0: c572 0abf 5734 67be f7c5 e4bd c45a f63e
000003b0: a41d 8f3f 194f c7bd ee8e 8d3e 6ec5 053d
000003c0: be73 803f dacf cc3d 2220 b8bf 1c54 303f
000003d0: abd1 cdbe b98f efbe 879f 56bf 0666 10bf
000003e0: 9ce8 953d 5d02 773e 9ccd 1fbf 38ea 873f
000003f0: 026c 63bf 07b2 6a3e 7a0e 12bf 593c cb3f
-0.46833202 1.1723332 0.98068553 0.17228356 -0.15353797 1.2852433 -0.25935715 0.9190722
-0.2664008 0.060240284 0.46056518 0.35872367 0.20709568 0.25071225 0.68837196 0.73836815
-0.9170981 -0.13846236 0.7587525 0.3336877 1.032557 -0.07339919 -0.87857836 0.085425735
0.41521275 0.93921506 -1.1169758 -0.10885843 -0.3039988 -0.021898283 -0.02568169 0.0014399783
1.2416494 0.19766828 -0.17450114 0.47645462 -0.67074597 -0.35329118 0.38619494 0.103381775
0.4984787 1.0096679 -0.37471732 0.35125864 0.35956103 0.031942863 -0.97351223 -0.26992854
0.13035187 -0.24949487 -0.21868874 -0.21230474 -0.7889728 0.71785235 -0.44165844 1.5864884
0.05910322 0.62988347 -0.23052837 -0.35213688 1.6079631 0.22494468 1.823183 -0.5307535
0.3547099 0.16195711 1.2503059 -0.17406504 -0.009982389 0.12451734 -0.24444173 -1.4458638
0.009441877 -0.055941835 0.30544257 -0.23597321 -0.8066666 -0.8127152 0.029324377 0.4615359
0.42663845 -0.57846606 -0.08006239 0.47698483 -0.23937881 1.1174616 0.6670882 1.5376672
-0.4145504 -0.38002566 0.58446735 -1.0472687 1.5062863 0.17092894 -0.23814937 0.61173034
-0.8702259 0.2483083 -0.8177173 -0.0015989275 0.512195 0.3468121 -0.15745321 1.2155231
-0.21471655 0.417698 0.02384137 -0.05599651 -0.2611447 -0.30963036 0.78061706 0.25626335
-0.18492569 -0.8666865 0.5327911 -0.45178968 0.26607013 -0.8054205 0.46740294 0.6748614
0.11848086 0.76249117 -1.3662208 0.43358493 0.08864579 -0.43378034 1.1140708 0.9426208
-0.72182274 -0.3619423 -0.15545447 -0.33738 -1.4447035 0.5267336 0.20605066 0.26171115
0.66017413 0.3638736 -0.014249155 -0.17445143 0.6369654 0.23131242 -0.6624446 0.42511436
-0.052915037 -0.5221214 0.027470311 -2.074199 -0.09494512 -0.11445892 0.279876 1.2833546
0.6836213 -0.42167243 -0.37126827 0.094368234 0.5183123 1.0169326 0.35356107 0.35052598
0.1963398 -0.17283684 -0.04765472 0.95088947 -0.2082543 0.6278459 -0.021718608 0.462712
1.0213348 -0.28022426 0.5842407 -0.9310295 0.44769686 0.7310443 -0.549883 -0.27979562
0.23233049 -0.13168868 -0.15553698 -0.35922432 -0.86801296 0.7413628 -0.2578889 0.21710472
-0.007737989 1.2132355 -0.25476122 -0.4850452 -0.09338108 -0.33590218 0.4556671 1.3725741
-1.0941956 0.09976992 0.3061196 0.81005365 -1.0564072 -0.5335424 0.5829079 -0.45232266
0.20557477 -1.3679011 0.23945367 0.29260078 -0.20285793 -0.14660314 -1.0816807 0.87778515
0.46545082 -0.045448124 1.598343 -0.51876956 0.25132447 -0.30133405 0.353284 -0.02589919
-1.2189475 -1.7886552 0.35010335 0.301052 -0.2278744 -0.38390908 -1.722989 -0.3735656
0.3669744 1.3874618 -0.7894835 -0.16044973 0.15656962 -0.38790426 1.7392356 -0.1893982
-0.54081374 -0.2257856 -0.11170571 0.48116124 1.1180921 -0.097318836 0.2764811 0.032658987
1.0035322 0.10000582 -1.4384806 0.6887834 -0.40199026 -0.4678934 -0.8383717 -0.56405675
0.07319757 0.24121995 -0.6242311 1.0618353 -0.8883668 0.22919475 -0.5705334 1.5877792

fc1.bias f4 [64]
00000000: a3fa fc3e 1839 7abf ab41 57bf e68c 97bf
00000010: 42d2 b9be 1740 a1be 488b 22bf bdd2 5e3d
00000020: 1c84 33bf 38c5 d2bf 5d99 08bf f443 50be
00000030: 00bc 2f3f dd4b e93e e2dd 1c3f f55d fd3e
00000040: 8caf acbf fe0f 77be b751 143e 1005 12bf
00000050: 168b 61bf cf4a 153f 5ca2 52bf 4201 233f
00000060: 5c3f 113e d919 d1bd 0877 81be 3a33 aebf
00000070: 372b 253f 8911 01be 21c4 69be 6bad a73e
00000080: 83b4 63bf e221 2bbe 0232 44bf 49bb 48bf
00000090: 2c48 19bf 7405 90bf 8d8f 7cbf 9ee0 43bf
000000a0: 6cf9 07bf 86fe ebbe bc6b 5fbf 36b2 64be
000000b0: 8da1 84be 9839 65bf 7221 70bf b50f 143f
000000c0: 3663 0fbf 0f8c 37bf 79ef 85be 7cc1 7cbf
000000d0: 5860 8d3e ace9 1ebf c9ee 96be 4aaa 88bc
000000e0: 06e0 8fbe 9fdb 123e 4b8a febe 7e86 32be
000000f0: faff cabe ece4 03bf 9a45 503e 1c06 51bf
0.4940997 -0.9774337 -0.84084576 -1.1839874 -0.36293226 -0.3149421 -0.63493776 0.054400194
-0.7012346 -1.6466436 -0.53359014 -0.20338422 0.6864624 0.45565692 0.61276066 0.49485746
-1.3491073 -0.24127194 0.14484297 -0.57038975 -0.88102853 0.58317274 -0.8227899 0.63673794
0.14184326 -0.10210008 -0.25286126 -1.3609383 0.64519066 -0.12604345 -0.22828723 0.32749495
-0.88947314 -0.16712144 -0.76638806 -0.78410774 -0.5987575 -1.1251664 -0.9865654 -0.76514614
-0.5311496 -0.46092623 -0.87273765 -0.22333607 -0.25904503 -0.89541006 -0.93801033 0.5783647
-0.5601076 -0.7169809 -0.26159266 -0.98732734 0.27612567 -0.62075305 -0.29479054 -0.016682763
-0.28100604 0.14341591 -0.49714884 -0.17434117 -0.3964842 -0.5152118 0.20339051 -0.8164995

fc2.weight f4 [64, 64]
00000000: 5ed2 fdbf 68ec 82be f6e8 debd 4c6b c13e
00000010: 28cc 3e3f 9f40 89bf 7e62 5cbf 4696 873e
00000020: d25f f53e 2412 713f d308 c73e 7b6b 6cbd
00000030: 0c33 2fc0 e17a 61be e029 c2bd 6827 f43e
00000040: 93c4 113f 69fe eabe 1046 16bf 3d51 a33e
00000050: a15d f3be d367 d23e 5bdc 85bf cd17 3e3e
00000060: c2b2 b83e 7f47 24bf 9e4c 073f 410c 3c3d
00000070: 453f edbe 461c 0a3b af9b 0f3e 1ce8 fa3c
00000080: 0524 e0be b181 723d 6b21 943b 7909 cf3d
00000090: 20dd f83e 03ad 373f 7252 36be 2647 8c3f
000000a0: feb8 b23e c7c2 1dbe 6c88 19bf 1832 763e
000000b0: 393f 30bf 005f 393f acc6 5abd 0c63 9abf
000000c0: c63e 1e3f 38ac 883f 3215 cebd c32b 9fbf
000000d0: 4f19 37be 899e c53d 509e 66be 904d 2f3f
000000e0: fabd e3bd 266e c03e 08b4 683f 2fb3 5cbf
000000f0: 6f3f fbbe 3c52 713f 37da dcbe b700 5cbf
00000100: 403e 60be 1b4d 17bf 9084 62bf eeaf 19bc
00000110: 115b f63e 2fc2 c0be fd0e f73c 22af 73be
00000120: 1127 bc3e 3430 94be 26a4 f5bd 9657 a1be
00000130: 54d1 b23c b6b3 b2be 1d7e db3d 1e00 13bd
00000140: 5e31 343f 507f e7bd bdcb 28bf daf9 3dbf
00000150: 5264 e5be 4421 fd3e cf83 ae3e 0ec6 c1bd
00000160: ac79 c9be 36c8 e3be a7a5 ab3d c5db 183f
00000170: 0fe3 48be 2343 30be 705e 26be c994 58bf
00000180: b0fb 31bf b6e4 ecbd fef1 10be 38bd febd
00000190: 3a29 3abe 5abe 7fbe 63a8 5dbe 2eb8 353a
000001a0: 006f 2dbe 52fc 87bd 7e04 2dbf cb8e f1be
000001b0: f4c6 33bd 2669 5bbe 9507 4abf 7bde f4bf
000001c0: 008f b9be 2971 663e 5f4a 16bf 2a02 f4bc
000001d0: 33ad a7be 1e63 08be 14c9 72be b50d 803e
000001e0: 42b7 d33c d379 cd3e 06f6 d53d 05d3 1fbf
000001f0: 2bfd 5b3d 4781 5c3f 2a14 87bd 3f88 b1be
00000200: 05c9 9d3d e0db 673e 3c9a 853e 7db7 64be
00000210: 00c9 0cbd 96eb b7be dc21 bebe 6d52 c3be
00000220: e28c 39bf 098c 243e ec55 633c e239 01bf
00000230: 4ce8 b7be b09b 2ebd f669 29bd 3e42 a23e
00000240: d087 1bbf 6e44 98be b2f7 64bd b243 2e3e
00000250: 9d5e 563e 6bce c9be 2d4b 43be b7a5 cbbd
00000260: 1bbe 56be 74c6 fcbd 2c1c e23c 67f4 51bf
00000270: 5e68 9e3b 1716 1a3d 7a3a 80bb f444 c83e
00000280: 2307 1c3d 5f60 d5bd d9d3 b03d 66ec 383e
00000290: ef5b 24bf d467 f0be 5602 4dbe ceb8 a6be
000002a0: 6886 403b bda2 a63e 950a 813e 795d 643c
000002b0: 1b5d bb3d 8366 ebbe a3b8 a63e b780 953e
000002c0: cab2 a0bc 44fb 88be 9630 20bf 90f8 70be
000002d0: 15d9 bd3d 84dd 49be b068 b3be 5fce c63d
000002e0: 1c76 10be 6153 01bf ddec 71be 3dd0 203d
000002f0: 575f 31bf e553 60be 25a9 9cbd 0cce 32bd
00000300: 4324 7abe 7226 223f 6f61 0d3f 0e30 6abe
00000310: 53c7 d33c 2f34 85bf 0794 f2be 3316 a23e
00000320: a82a aabf b542 f7bf 1dc3 f03e a7b4 08c0
00000330: 84c8 89bf 1a8b 9dbe d729 8a3e bd50 4a3f
00000340: c6b0 b1bf 207f f3bf 6fc3 05bf e3d6 b43e
00000350: 7f49 9e3e bfda 1ebf f0eb 73bf 28fd b63d
00000360: dfdc 08be bc22 b9be aef5 f63d 4d86 3dbe
00000370: 3fd4 003f 20c9 393f 9fb9 43bf 2b5f ec3e
00000380: 7d81 9f3c 3396 c93d 30bd fb3e 12d8 5cbf
00000390: 596e 00be 9798 97be 28eb debe e70d 053c
000003a0: d3b6 0c3f 75c9 f53e 650f bc3e afd0 a83e
000003b0: 9352 3ebf 730d 563e 1d7e b83e 8981 ea3e
000003c0: b072 163f 9fe6 8c3d ded2 e5bf 0c55 b8bf
000003d0: 69fa 25be 5122 903e b895 6cbe e3ae b6bf
000003e0: 0759 563e 9ab3 23bf 300f 23be 9542 713f
000003f0: 27b8 4a3e 5737 f8bf d19f 5bbe aa83 cebe
-1.9829824 -0.2557099 -0.108842775 0.37777174 0.7453027 -1.0722846 -0.8608779 0.26481837
0.47924668 0.94168305 0.3887392 -0.05771969 -2.7374907 -0.22019531 -0.09480643 0.47686315
0.56940573 -0.45897225 -0.58700657 0.31897917 -0.4753237 0.41094837 -1.0457872 0.18563767
0.3607388 -0.64171594 0.52851284 0.045910124 -0.46337333 0.0021073981 0.14024232 0.030628256
-0.4377748 0.059205715 0.0045205853 0.10109229 0.48606205 0.7174837 -0.17804888 1.0959213
0.34906763 -0.15406333 -0.5997379 0.24042547 -0.6884647 0.72410583 -0.053412125 -1.2061477
0.61814535 1.0677557 -0.100626364 -1.243523 -0.17880748 0.09649379 -0.22521329 0.68477726
-0.111202195 0.37584037 0.90899706 -0.8621091 -0.49071833 0.94266105 -0.43135235 -0.8593859
-0.21898746 -0.5910203 -0.88483524 -0.009380324 0.48116353 -0.3764815 0.030158514 -0.23797277
0.36748555 -0.28943026 -0.119941995 -0.31512135 0.021828331 -0.34902734 0.107174136 -0.035888784
0.7038783 -0.1130358 -0.6593588 -0.7420937 -0.448031 0.49439442 0.34084937 -0.09461604
-0.3935064 -0.44488686 0.08381205 0.5971034 -0.19617866 -0.1721311 -0.16246963 -0.8460203
-0.6952467 -0.11567061 -0.14154813 -0.12438434 -0.18179789 -0.24974957 -0.21646266 0.0006932047
-0.16936874 -0.06639923 -0.6758498 -0.47179255 -0.04389091 -0.2142683 -0.7891782 -1.9130396
-0.36241913 0.22504105 -0.5870723 -0.029786188 -0.32749328 -0.1331906 -0.23709518 0.25010458
0.02584422 0.40132007 0.10447316 -0.62431365 0.053708237 0.8613476 -0.06595643 -0.3467426
0.07704357 0.2264247 0.26094234 -0.2233562 -0.034371376 -0.35921925 -0.37135208 -0.38148823
-0.72480595 0.16069044 0.013875466 -0.5047895 -0.35919416 -0.042628944 -0.041360818 0.31691164
-0.6075411 -0.29739708 -0.055900283 0.17018011 0.2093453 -0.39415297 -0.19071646 -0.09943717
-0.20970957 -0.123425394 0.027601324 -0.82013553 0.004834219 0.037618723 -0.003913221 0.39115107
0.038092744 -0.10418772 0.08634157 0.18058929 -0.6420278 -0.46954215 -0.20020422 -0.3256287
0.0029376987 0.32546034 0.25203386 0.013938301 0.09148618 -0.45976648 0.32562742 0.29199764
-0.019616503 -0.267542 -0.62574136 -0.23532319 0.09269921 -0.19713408 -0.35040808 0.09707331
-0.14107555 -0.5051785 -0.23625512 0.03926109 -0.692861 -0.21907003 -0.07649449 -0.043653533
-0.24427895 0.6333991 0.55226797 -0.22869894 0.025851881 -1.040655 -0.4737856 0.31657562
-1.3294268 -1.9317232 0.4702386 -2.1360261 -1.0764318 -0.3077019 0.26985046 0.79029447
-1.3882072 -1.902317 -0.52251333 0.35320196 0.30915448 -0.6205253 -0.9528189 0.089350045
-0.13365506 -0.36159313 0.120585784 -0.18508263 0.5032386 0.7257252 -0.7645511 0.46166357
0.019470925 0.09843101 0.49167776 -0.862672 -0.12542094 -0.29608604 -0.43538785 0.00812099
0.5496647 0.48005262 0.36730495 0.32971713 -0.7434475 0.20903568 0.36033717 0.45801952
0.5876875 0.06879925 -1.7954977 -1.4400954 -0.16208805 0.2815118 -0.23103988 -1.4272121
0.20932399 -0.63945925 -0.15923762 0.9424222 0.19796811 -1.9391888 -0.21447684 -0.40334827

fc2.bias f4 [64]
00000000: 99c4 27bf 1ca7 ffbe 748a 08be f32a 913d
00000010: 5d4a 44ba 612f 97be 5b54 bcbe 6cd7 91be
00000020: 9f08 5d3e 5f81 073f 36ad ebbe 871b cabe
00000030: 4961 6abe 9afc acbc c8e5 b83e 76db 953d
00000040: ac2a 033e 65e2 86be 8ddc 9c3c 93bb f1be
00000050: 6eae 16be 62b9 ecbe f484 5cbe 7741 8ebe
00000060: cd71 4bbe 531f f53e 7120 673d af26 93be
00000070: 163d 5fbe fada 83bd d236 053e 2e07 babe
00000080: 00a2 1a3d 79e9 c23c 048e fb3d 9d60 c83e
00000090: ad11 99bc fa4f 883b 9364 783e 0449 753e
000000a0: fe78 593d fe0d 623e 8874 16be 6f78 a53e
000000b0: 50d4 133f 146a 443d 79ca 95be 1244 b4bc
000000c0: 0545 a63d b450 8f3d cd45 c4be 88a1 9abe
000000d0: 41fd 43bd 0119 26be c489 c6bd 719b b73d
000000e0: 24c7 113a 062c 62be b2dc 77be 066f 94bd
000000f0: 511d 85be 5028 e03e b6b5 9abd 349e 29be
-0.6553436 -0.49932182 -0.13334066 0.0708827 -0.00074878876 -0.29528335 -0.36783108 -0.28484666
0.2158532 0.5293178 -0.46030587 -0.39474127 -0.22888674 -0.021116544 0.3611281 0.073172495
0.12809247 -0.263446 0.019148136 -0.4721342 -0.14714977 -0.46235186 -0.21535093 -0.2778432
-0.1986763 0.4787546 0.056427423 -0.2874045 -0.21800646 -0.06438251 0.13009194 -0.36333603
0.03775215 0.023792969 0.12282947 0.3913621 -0.018685186 0.0041599246 0.24257116 0.23953635
0.053093903 0.2207565 -0.1469289 0.32318446 0.5774584 0.047952726 -0.29256037 -0.022005115
0.08118633 0.06997815 -0.38334504 -0.30201364 -0.047848944 -0.16220476 -0.096942455 0.08965195
0.00055609853 -0.22087106 -0.24205282 -0.072477385 -0.2599893 0.43780756 -0.0755419 -0.16564256

fc3.weight f4 [1, 64]
00000000: 2e3c 513f b9be 97be 000a 8c3e 5817 0c3f
00000010: 2b32 4abf 301b afbf 541f 863f dc79 473f
00000020: 10db e73e 381e 6dbf 06a7 a33e 26b6 a3be
00000030: 8006 fb3f f2b0 72bb 5f5d b43f 9e4b 403f
00000040: 8632 f7be 1098 8e3e 79f7 aebd acbf 363f
00000050: 6a5b 84be d6b6 4dbf 6f70 643f fb60 09c0
00000060: 34a6 d03e f715 8f3f 9092 293f 063e 233f
00000070: fbe7 393f 12f9 36bc 3571 233f e8f9 e6bd
00000080: 1024 e93b db8c d83c 352e ffbe f653 393f
00000090: d023 09c0 4655 a73f 0fb4 913f e15a 883f
000000a0: 22cd d03f a15e c73f 4488 9a3f fac2 d33f
000000b0: 8a0c a53f 2f38 333d 3ba3 173f 3107 eebe
000000c0: 58ee 123f 089a 61bd 2d2c 513f 32b0 3f3f
000000d0: cb2e 3b3f 6952 47bd c2fa 4c3f 7f98 b8be
000000e0: 20b6 fbbf 2b5f 5f3f 0846 fc3e 7c23 bfbe
000000f0: c2d2 38be 1755 56bf 35c4 5abd e8a0 443d
0.8173245 -0.29637697 0.2735138 0.5472312 -0.789828 -1.3680172 1.047831 0.7792032
0.4528432 -0.92624235 0.31963366 -0.31974906 1.9611359 -0.0037031737 1.4090995 0.7511538
-0.48280734 0.2785039 -0.085432954 0.7138622 -0.25850993 -0.8035711 0.8923406 -2.1465442
0.40751803 1.1178578 0.6623926 0.63766515 0.726196 -0.011167781 0.63844615 -0.112781346
0.0071148947 0.026434353 -0.4983994 0.7239374 -2.1428108 1.3072898 1.1383075 1.0652734
1.6312602 1.5575753 1.2072835 1.6543877 1.2894452 0.043754753 0.59233445 -0.46489862
0.57394934 -0.055078536 0.8170803 0.7487823 0.73118275 -0.048662577 0.80070126 -0.36053845
-1.9664955 0.8725459 0.4927218 -0.3733176 -0.18049148 -0.83723587 -0.053409774 0.048005015
