DDPG/saved_models/critic.pt (torch_old, 19718 bytes, 5 tensors)

fc1.weight f4 [64, 6]
00000000: 2924 9d3d 7d1c 12bc 1aa3 abbe fd6b 5f3e
00000010: 767f e8be e962 aebe c7d8 b2bd ab65 86be
00000020: 4be6 203e 3050 613e a07a babe eadb f03d
00000030: cdcf 443e 0d0a 3dbe c64e 56be 0931 853e
00000040: 8600 9ebe 94fe 2d3d 4a3d 4ebd d636 9bbe
00000050: 247a 9fbc b620 9abe d24b 9e3e 1b14 423e
00000060: a891 babe a1b1 61be bd97 08bf 7b22 49be
00000070: 293d f53c 3bca 83be a5e9 c73c ed06 b6bc
00000080: e5e5 24be 2bcb 2e3e 8164 be3c d349 be3e
00000090: 177f de3e 7a47 dabd 9c7c 9e3c c653 da3d
000000a0: 310a 3ebe e1c8 4d3e 8a7c 85be b704 ba3e
000000b0: ba2b d6be 877f bebd e1be 833e 3097 a13e
000000c0: ec27 e23d f691 11be 2514 ea3e 5c2c 4abe
000000d0: 6454 d33e 4450 dbbd 175b 503b 2d66 a73e
000000e0: ea3f eabe 8a04 8e3d 7cf1 be3d 1283 423c
000000f0: 4745 e63e 5230 103f 9add a73e f339 94be
00000100: ab1b 0c3d 5345 c43c 6f95 bcbd bd50 a8bd
00000110: 4510 fcbe 152e 0c3e ab54 afbe fc67 f03c
00000120: c7b2 283e eaee e63e 9768 bfbe bad8 2cbe
00000130: c3c8 27be 5571 af3e ab3e e83e 4f33 e83d
00000140: ca3e 943d f688 d8bd 9d6b e43d 6891 0ebe
00000150: e2d1 6a3e c2a4 19be c6b0 d3be f94c e83c
00000160: 658d 7abe 16e4 cc3d 376a 793e 1d60 e83e
00000170: dba7 c53e 581e 283d ee1b 2a3d 2df3 023e
00000180: 822e c43e 5657 3e3d 4c74 813d 289f a33c
00000190: 7f4b 4e3e 1251 64bd 797a a83c 8ea2 ac3e
000001a0: 4733 19be 2557 443d 68cb 233e 59d1 92be
000001b0: 2021 55be 6958 f73d ed37 093e 4dbe 8c3e
000001c0: 2d1e 86bd 2fd9 a43d cdd1 ebbe df6d a5bd
000001d0: 8997 253e d3ed f8bd ec04 8b3e e08e 45be
000001e0: 7031 20be 7739 883e 2132 a73e b501 473e
000001f0: ea45 f13d 5a44 8ebe 2b4d 4bbd 14f7 453e
00000200: 24b7 ec3b 82c3 573e 6770 efbd 372d 5abd
00000210: 98f5 a5bd 399a ccbd 4dee 003f 414a 6fbc
00000220: f9b0 633e eca3 cabd 6c30 a1be 9a77 853e
00000230: c458 a9be aa24 153d 0e46 59bd befe ec3d
00000240: 06f4 283e 5b05 1abe e908 753e e752 843e
00000250: e821 cdbe 82f0 a7be 4df0 8abe 7c0a 7a3e
00000260: af78 ae3d 8f11 d2be 3c31 8f3e 0587 71be
00000270: 0e91 ba3e 9326 0b3f 9db5 ca3e 12b2 a73d
00000280: 23e9 80be 532b b1be daf1 183d 94be ba3e
00000290: 9342 79be 83e2 d23e 7b74 e43e c241 eebd
000002a0: 625e adbe 2abb ba3e 9b0a a73e f6ae 7dbe
000002b0: b7a6 abbe fedb 513d 5c7f b33d 87ef 173e
000002c0: 0a67 a5bd 0a96 c23e 0d1c 4ebe a426 873e
000002d0: d0b5 c73d da23 cfbe ee8e dabe db31 bd3e
000002e0: 4e03 f23d a037 a0ba e042 81be 5334 cd3e
000002f0: 1826 943e 002b b93e b37f 88be 5177 08bd
00000300: 9da0 debe 7df3 313e 6d10 193e aa09 bd3e
00000310: f20f 923e d67c a93e fcc2 d2bd 8827 69be
00000320: b18b 00be 3047 bfbe 1465 abbe b329 c3be
00000330: 4b70 523e 258a 123e a222 4d3e e809 e5be
00000340: c992 db3d 9e52 883e 9c13 1abe 0cce 66be
00000350: b8fc 07be 9637 c73e 235b efbd f593 95be
00000360: b1aa 22bd 312f a73e fb39 a5be a3f9 103e
00000370: 15c7 0cbe 5f4e 1e3e 11aa 29be 02b8 a2be
00000380: a89b e2be 1580 be3e 0227 bbbd c1b9 acbe
00000390: d4fd c73e 6c9d 40be 76cd 0ebf 824b 3e3d
000003a0: 9847 5abe bed0 95be 277c f23e db39 6fbd
000003b0: 872e 64be cfd7 71be 1eb2 d73b f8dc 09bd
000003c0: dff1 933e a54e c83e e8ac 643e d496 a1be
000003d0: 7a21 943d 852c 7abe dafb 1e3e 3f8c 003f
000003e0: b49d bf3d 885e 6abd 714b 6fbe f444 76be
000003f0: 3c22 c9bd ed04 19be f644 bd3e 12c4 e73e
0.076729126 -0.008917925 -0.33522874 0.21818538 -0.45409745 -0.34059837 -0.08732753 -0.26249442
0.1571285 0.22003245 -0.3642168 0.11760695 0.19219895 -0.18460865 -0.20928487 0.26013973
-0.30859774 0.042479113 -0.05035142 -0.30315274 -0.01946742 -0.3010308 0.3091722 0.18952982
-0.36439252 -0.22040416 -0.53356534 -0.1964206 0.02993639 -0.25740227 0.024403403 -0.0222201
-0.16103323 0.1706969 0.023241283 0.37165698 0.43456337 -0.10658164 0.019346528 0.1066051
-0.18558575 0.2009616 -0.26071578 0.36331722 -0.41830236 -0.09301668 0.25731567 0.3156066
0.11042771 -0.14215836 0.45718494 -0.19743484 0.41275322 -0.10708669 0.0031792575 0.3269514
-0.45751888 0.069344595 0.09323403 0.01187207 0.4497473 0.5632373 0.32786256 -0.28950462
0.034206074 0.023958838 -0.0920819 -0.082185246 -0.49231163 0.13689454 -0.34244284 0.029346459
0.16474448 0.45104152 -0.37384483 -0.1687955 -0.16385178 0.34266153 0.45360312 0.11337911
0.072385386 -0.10572998 0.11153338 -0.13922656 0.22931626 -0.15004256 -0.41345805 0.028357016
-0.24468 0.100044414 0.24356924 0.4538583 0.38604626 0.041044563 0.041530542 0.12788077
0.38316733 0.04647001 0.0632101 0.019973353 0.20145987 -0.055741377 0.020566212 0.3371777
-0.14960967 0.04793467 0.15995562 -0.28675345 -0.20813417 0.1207741 0.1340024 0.27488938
-0.06548724 0.08049237 -0.46058503 -0.08077597 0.16171087 -0.12154736 0.27152193 -0.19292784
-0.15643859 0.26606342 0.32655433 0.19434245 0.11780913 -0.27786523 -0.04963414 0.19332534
0.0072239805 0.21070674 -0.11691361 -0.053265776 -0.08103484 -0.09990353 0.5036362 -0.014605106
0.22235478 -0.09894547 -0.31482255 0.2606781 -0.33075535 0.03641192 -0.053045325 0.11572026
0.16499338 -0.15041105 0.2392918 0.258445 -0.4006493 -0.3280068 -0.2713646 0.24418062
0.08519112 -0.4102902 0.2796725 -0.23586662 0.36438793 0.54355735 0.39591685 0.08188261
-0.2517787 -0.34603366 0.037340023 0.36473525 -0.24341802 0.4118844 0.44620118 -0.11633636
-0.3386107 0.3647092 0.3262528 -0.24773774 -0.3352563 0.05123519 0.08764526 0.14837466
-0.08076294 0.38005096 -0.20127888 0.26396668 0.09751475 -0.4045704 -0.42687172 0.369521
0.118170366 -0.0012223609 -0.25246334 0.40078983 0.28935313 0.3616562 -0.26659927 -0.033316914
-0.43481913 0.1737804 0.14947672 0.36921436 0.2852779 0.33103055 -0.102910966 -0.22768986
-0.12553288 -0.37359 -0.33475554 -0.3811775 0.20550649 0.1431051 0.20032743 -0.4473412
0.107213564 0.26625532 -0.15046543 -0.22539538 -0.13279998 0.38909596 -0.11687305 -0.29214445
-0.039713565 0.32653192 -0.32270798 0.14157729 -0.13747819 0.15459584 -0.16568781 -0.31781012
-0.4425938 0.37207094 -0.091382995 -0.3373547 0.39060843 -0.18810052 -0.5578226 0.04645873
-0.21316373 -0.2926082 0.47360346 -0.058404785 -0.22283374 -0.2361748 0.0065825125 -0.033657998
0.2889547 0.391225 0.22331583 -0.31560385 0.07232948 -0.24431045 0.15525761 0.50214
0.09356251 -0.05721906 -0.23368622 -0.24049741 -0.09820983 -0.14943285 0.36966676 0.45266777

fc1.bias f4 [64]
00000000: c47e 14be 721f e0bd 20c6 37be f8a7 1b3e
00000010: d3d6 98bd 809d a53e 5382 ab3d 8e3f a0bd
00000020: 9d56 d2bd 39f9 283e 4bdd 56be c5c5 283e
00000030: 6469 e83e bedb d73e 7db2 6fbc 02a5 fb3e
00000040: 4ea4 20be 699c 0b3f 510c 83bd 81b3 12be
00000050: c5d6 b3be d20c af3e dd90 15be c49a fe3e
00000060: 33b1 b3ba 9a02 45be cf35 b13e c266 e13e
00000070: b6be c8be 831b ac3e cedf 803e fb60 d9bc
00000080: 78ae 47be 6578 4fbc 1128 45be 0cb2 09bc
00000090: 2bd5 623e 9637 5d3e 2aea 363e 32b4 943e
000000a0: 5ded 9e3e 56b2 ee3e 7d49 e0bd 9527 b2bc
000000b0: 76b3 03be d032 cb3d 587f 0a3e 6b88 e13e
000000c0: d098 c93c 8119 5d3e 0ff5 31be 91df 7cbe
000000d0: 2ecd 22be 445d 93bd 69f9 e53e f492 92bd
000000e0: 8073 9b3e eefb 3cbe c26c df3e c942 58be
000000f0: 0943 463e ac90 b7bd f691 b53e b145 5fbe
-0.14501482 -0.10943498 -0.17946672 0.15200794 -0.074628495 0.32346725 0.08374467 -0.07824622
-0.102704264 0.16501321 -0.20982854 0.16481693 0.45392907 0.42159837 -0.014629957 0.49149328
-0.15687677 0.5453554 -0.063988335 -0.14326288 -0.35124794 0.3418947 -0.14606042 0.49727452
-0.0013709426 -0.19239274 0.34611365 0.4402371 -0.39208 0.3361474 0.2517075 -0.026535502
-0.19500148 -0.012662982 -0.19253565 -0.008404266 0.2215163 0.21603236 0.17862764 0.29043728
0.3104047 0.46620435 -0.10951517 -0.02174739 -0.12861428 0.09921801 0.1352514 0.4404939
0.024609 0.2159176 -0.17378639 -0.24694659 -0.15898582 -0.071955234 0.44916847 -0.07156935
0.30361557 -0.18455479 0.43637663 -0.21119227 0.1936151 -0.08963141 0.35462922 -0.21803929

fc2.weight f4 [64, 64]
00000000: e53b 95bd a728 c53d de84 753c d2ae fcbd
00000010: 7da1 d83d 25db 153d 3d14 f6bb 9a74 b9bc
00000020: ba7a 97bd 3a3f 95bd 2dfb a03d 6afa afbc
00000030: f3a9 9cbd 9683 c7bc 29b1 883b 4b2b 14be
00000040: 0079 16ba 5d5b f8bc 32c8 e13d eeaa a13d
00000050: b022 6fbd 5781 573b 3430 7a3d 0122 5a3d
00000060: 188d 063e 0874 c0bd ed5c 96bd f405 dabd
00000070: e453 75bd 1a30 09be d967 343c 64d3 0ebd
00000080: f442 89bd b43a 4dbd 5999 0bbd dec1 303d
00000090: c8c3 a23d f7cf 553d 5e9d 2dbd 67e1 95bd
000000a0: fd62 cc3d 38cd 8fbd 3122 653c cf72 cabd
000000b0: dbfa 5cbd 843b d63b dabe f63c 585a 8d3d
000000c0: 9451 423d 8551 a33d e122 983d 16f8 39bd
000000d0: 5246 c8bd e907 b0bc 99d9 833d 0193 bfbd
000000e0: 9cd9 743d e8f0 b13d 4c60 ab3d 42ee f6bd
000000f0: cebd 82bd 6f3a dfbd 8b12 7bbd b808 b3bc
00000100: 2594 9c3d 9f9e 443d f4c4 d4bd 7943 95bd
00000110: 3689 023e 13e4 d0bd e519 47bb a720 7b3d
00000120: 6bc1 cb3d f87e ca3d a155 8cbd 3938 86bd
00000130: 268e 303d 202c 3dbb 276a 9abd f4ea 17be
00000140: fae9 38bd 90ab a53d 34a6 a4bd d898 ebbd
00000150: 48ed b8bc df51 9abd 7766 143d 9952 e5bd
00000160: 0c62 b13b f4fe fd3d 0b03 ae3d b4ae 26bd
00000170: 9506 d23d f2e4 bb3d 2e25 51bd 55a5 dfbd
00000180: 8063 febc 90f4 18bd fac2 f8bd c707 8bbd
00000190: 9a7f 92bc 93fa c7bd e5c4 9bbd 50eb b0bd
000001a0: c3f3 e0bc 8e92 7d3b 1423 9cbd 6222 f2bd
000001b0: e662 b23d c3e0 ad3c 25c0 bebc 72e3 ddbd
000001c0: eefd dabc 96f9 9f3c 5887 3d3d 2726 b93d
000001d0: 953a 333d d040 3abd fcb6 353b 0fbf 7bbd
000001e0: 7138 39bd 7cde 8fbd 708b 1ebd 4b60 893c
000001f0: 5333 363d c82f efbd ba6f a8bd 138b ebbd
00000200: f771 a63d 1965 6e3d 51cf 0d3d ef37 823d
00000210: 7f30 063a 4b2e 8abc 7c86 8c3d a2b5 ee3a
00000220: be7c 0c3e 7b4a 93bd 8e43 55be a64d 4b3e
00000230: d2aa a0bd c378 f53b 85cf 3c3e 3364 b6bd
00000240: ca8f e33d 1432 3b3c f081 c5bd 5fe6 963d
00000250: 3f95 56be 9028 8a3d 27a1 523e 84cf 483d
00000260: e5ca ed3c b9ed 7a3d 35b1 d0bd 655e 10bd
00000270: 7f7f 3ebc f75e 2f3d 9c29 253d d0ce d03d
00000280: b766 7d3d a64f 043e 98df 813d ecb3 babc
00000290: cf30 68bd 5cf6 d03d 7021 b73d 6504 16be
000002a0: 1b76 05bd dd41 eb3c 49fc ba3d 196f a73d
000002b0: c789 0bbd 4e73 8b3d e865 bb3d ab46 9b3d
000002c0: 5ac1 b7bd 2b40 e13c 42b4 a13a afb2 1d3d
000002d0: b653 15bd 973c 02bd 162d 1dbe 46d7 153c
000002e0: 2091 afbd ec42 aabd 2ebd e23c d364 723c
000002f0: 3f85 ab3d 3111 0cbd 7ddd 2cbd 5778 1b3e
00000300: 0647 983d dcab 49bd f37e 613d 6f5c d93d
00000310: bac5 22bd c55b 85bd e78e b5bc 1f8f 953d
00000320: e866 da3d d137 dc3d 665f 873e 56aa ee3c
00000330: 781c b53d b633 433e 9c32 853c 6172 8e3e
00000340: a9cd b0bc 9f19 3c3e e50d d8bd bb86 2fbc
00000350: e071 b3bc 080c 1abd 96b9 e5bd b9f4 033e
00000360: e465 043e 185e ce3d 5158 723e 321a 87bd
00000370: 2722 89bd 33bd 00bd 9332 b53c 0fce 88bc
00000380: 6bc2 0ebe 1759 dd3d 2bb1 1fbd 005b cebd
00000390: 128b afbd 36d2 bebd e165 f03d 7a12 403e
000003a0: 274f 5f3e 3352 f83d 6f9c 05be 2cb5 84bd
000003b0: b1ff e03c 969e eb3d b0b4 38bd 8a0e e73c
000003c0: 97a6 223e a9ad 25bc a261 f33d 635b 02be
000003d0: 3077 843d 307f 13bd 3157 00be eb1c 5e3d
000003e0: bcc6 813d 64e3 5b3c 2bc8 453d 3154 583d
000003f0: c0da 3b3d a971 263e 74cb df3c b1ea fa3b
-0.072868146 0.096268944 0.014985291 -0.12338032 0.105776764 0.036585946 -0.007509737 -0.022638608
-0.07396455 -0.0728745 0.07860408 -0.021481711 -0.07649603 -0.024354737 0.0041715098 -0.1446964
-0.00057400763 -0.030317003 0.11024512 0.078939304 -0.05838269 0.003288349 0.061081126 0.053255085
0.1313976 -0.09397131 -0.07341943 -0.10645667 -0.059894457 -0.13397256 0.011011087 -0.034869567
-0.067022234 -0.05010481 -0.03408179 0.043153636 0.079474986 0.052200284 -0.042386405 -0.07318383
0.09979818 -0.07021564 0.013985203 -0.09885179 -0.053950172 0.0065378565 0.030120302 0.06901997
0.04744108 0.07974533 0.074285276 -0.04540261 -0.097790375 -0.021488147 0.06437988 -0.09354211
0.05977784 0.08688527 0.083679765 -0.12057163 -0.063838586 -0.10899817 -0.06129698 -0.021854743
0.07645444 0.048002835 -0.10389128 -0.0728826 0.12747654 -0.10199752 -0.0030380425 0.061310437
0.09949001 0.098874986 -0.0685227 -0.06553692 0.043104313 -0.0028865412 -0.07539778 -0.14835721
-0.045145012 0.080893636 -0.08039513 -0.11503762 -0.022574082 -0.07535147 0.03623053 -0.11197395
0.0054132994 0.12402144 0.08496674 -0.040693954 0.10255162 0.09174527 -0.051060848 -0.109202065
-0.031053305 -0.037342608 -0.12146564 -0.06788593 -0.01788311 -0.0976459 -0.07605914 -0.08638632
-0.027459985 0.003869209 -0.07623878 -0.11822964 0.0871027 0.021225339 -0.023284981 -0.108343974
-0.026732411 0.019528192 0.046271652 0.0904048 0.04375704 -0.045471966 0.0027727475 -0.061461505
-0.045219842 -0.070248574 -0.038707197 0.016769549 0.04448254 -0.116790354 -0.08224435 -0.11501136
0.08127206 0.058201883 0.03462154 0.06358325 0.0005118921 -0.016867777 0.06861588 0.001821209
0.1371946 -0.071919404 -0.20826551 0.1985384 -0.078450814 0.0074912026 0.18438537 -0.0890583
0.1111141 0.011425514 -0.09643924 0.073681585 -0.2095537 0.06746018 0.20569287 0.049026027
0.029027412 0.061261866 -0.101900496 -0.03524627 -0.011627077 0.042815175 0.040322885 0.10195696
0.061865535 0.12921008 0.06341475 -0.022790872 -0.056687173 0.10203239 0.089419246 -0.14650114
-0.032583337 0.02871793 0.09130151 0.08175487 -0.03406694 0.06809102 0.091502964 0.07581838
-0.08972426 0.027496418 0.0012337046 0.038500484 -0.036456786 -0.031796064 -0.1534923 0.0091455635
-0.08572602 -0.083135456 0.027678099 0.014794546 0.08375024 -0.034196083 -0.042203415 0.15182625
0.07435422 -0.049236163 0.05505271 0.106133334 -0.039739348 -0.06511644 -0.022162868 0.07302689
0.10664159 0.10752834 0.2643997 0.029133957 0.088433206 0.19062695 0.016259484 0.2782164
-0.021582441 0.18369149 -0.10549525 -0.010713275 -0.021904886 -0.03760913 -0.11217038 0.12886323
0.12929493 0.10076541 0.23666503 -0.06596793 -0.06695967 -0.031430434 0.022118842 -0.016699819
-0.13941352 0.10808008 -0.03898732 -0.100759506 -0.085714474 -0.09317438 0.11738182 0.18757048
0.21807538 0.12125053 -0.13047956 -0.06479868 0.027465673 0.11504857 -0.045094192 0.028205175
0.15883861 -0.010112205 0.11883856 -0.12730174 0.06468046 -0.036009967 -0.12533261 0.054226797
0.06336734 0.013420913 0.0482866 0.052814666 0.045862913 0.16254295 0.027318694 0.007657372

fc2.bias f4 [64]
00000000: dcd9 a7bd 3224 373d 176e c4bd 5b8d 3e3e
00000010: ea06 373e 48ad 4538 c76d c7bc b0e7 2f3c
00000020: 900b f1bd 3cf4 da3d 111d ce3d f329 043c
00000030: fcee 5f3d 6443 043e 8ac3 18be d4f4 1abb
00000040: 9510 483e da06 603e 8331 fa3c fa55 ba3d
00000050: ca1f 81bc 21bc 9dbc 6210 4a3e a42c bf3d
00000060: c300 f0bc b6bd 6ebb 2f08 3b3e ec7c d5bd
00000070: b16c 8b3d 3b45 453e 9dab 343d 22cb 333e
00000080: 225e 70bd 45fd c7bd 2504 633e f2cd 8d3d
00000090: 83a7 5ebc 897b 353d 02a2 063d 3fc8 88bd
000000a0: 82a0 603d 0b88 22be 027b d03d b532 7abd
000000b0: a509 fdbd a9f4 19bd 304a 1dbd 5768 fa3d
000000c0: 6913 7a3d b346 0ebe 79e2 87bc 005b 8abd
000000d0: d98b 633e 8c65 023d b280 053e 19fb 873d
000000e0: 9869 343e bdb0 1b3e 95f6 df3c 361b 2dbd
000000f0: 035d a53d 9ab5 4cbb 4edc 933d fd33 a2bd
-0.0819585 0.044712253 -0.095913105 0.1860861 0.17873731 4.712984e-05 -0.024344338 0.010736391
-0.117697835 0.10691115 0.10064138 0.008066642 0.054671273 0.12916332 -0.14918342 -0.0023644464
0.19537576 0.21877614 0.030541187 0.0909843 -0.015762229 -0.019254746 0.19732812 0.093346864
-0.029297238 -0.0036428994 0.1826484 -0.104242176 0.068078406 0.1926469 0.044108976 0.17557958
-0.058683522 -0.09765104 0.2216955 0.069240466 -0.013589743 0.044307265 0.032869346 -0.06678819
0.054840572 -0.15872209 0.10179712 -0.061083514 -0.12355355 -0.03758684 -0.03840083 0.122269325
0.061053667 -0.13894157 -0.016587483 -0.06755638 0.22221316 0.031835124 0.13037375 0.0663969
0.17618406 0.15204139 0.02733926 -0.04226228 0.08074381 -0.0031236173 0.07219754 -0.07920072

fc3.weight f4 [1, 64]
00000000: 0630 afbc cd33 e4bd 0349 dabd 7b4f 383e
00000010: 5cfa 833e 6c82 f0bd dd81 533e 7cc1 94bd
00000020: ab92 49be 2a4d 183e bc4b 293e 7512 b43d
00000030: 470d 033e a52f 653e 0045 99bd eecf b3bd
00000040: fee9 543e caf2 463e be32 80bb 7a5f 6a3e
00000050: c295 313e 6327 1d3e d36c 2f3e 74ff 763d
00000060: db04 2dbe f95f d8bd 0d0b 633e 4819 5ebe
00000070: 5ed1 4ebe 81bc 923e 2cf0 133e a36f ee3d
00000080: 41f8 2abe 1e97 acbd 6ce2 1e3e 5b4a e63d
00000090: ab2d abbd 66a7 22be 2265 5a3e f17b e6bd
000000a0: ec86 53be 487d 20be f1de 143e 0503 23be
000000b0: 9367 21be 8ea3 663e b091 853e 1c94 383e
000000c0: 3881 403e 2f17 49be ee11 1fbe bb7c 713e
000000d0: 605c 4e3e 05ae bebd db76 4d3e 87b9 38be
000000e0: 7abe ec3d 6c9c 623e 1f05 63be 9d0a 33be
000000f0: fba7 393e ab91 69be 7873 ec3d b450 d8bd
-0.021385204 -0.11142693 -0.10658457 0.1799907 0.25776947 -0.11743626 0.20655008 -0.07263467
-0.19684856 0.14873186 0.16532797 0.08792583 0.12798034 0.22381456 -0.07483864 -0.08779894
0.20792386 0.19428554 -0.003912299 0.22887984 0.17342284 0.15347056 0.17131357 0.060302213
-0.16896383 -0.1056518 0.22172184 -0.21689332 -0.20197055 0.28659442 0.14447087 0.11642387
-0.16696264 -0.08427261 0.1551606 0.11244651 -0.0835832 -0.1588417 0.21327642 -0.11254109
-0.20656937 -0.15672791 0.1453817 -0.1591912 -0.15762167 0.22523329 0.26087713 0.18025249
0.18799293 -0.1963775 -0.15534183 0.23582737 0.20152426 -0.09310535 0.20064871 -0.18039523
0.11559768 0.22129983 -0.22169922 -0.17484517 0.18130486 -0.22809474 0.115454614 -0.10562268
