DDPG/saved_models/critic.pt (torch_old, 19718 bytes, 5 tensors)

fc1.weight f4 [64, 6]
000000 13 f7 10 bf 2c 9a 9c be 0c e8 87 3f 91 57 0d bf
       -0.56627005 -0.30586374 1.061769 -0.5521174
000010 2b 09 7e 3e 30 6e 3f be b1 c2 2f 3f 19 f1 07 3f
       0.24808185 -0.18694377 0.6865645 0.5310226
000020 e2 d4 09 3f 7e 5f f4 3e 50 db 07 bf 89 97 08 3d
       0.5384046 0.47729105 -0.5306902 0.03334764
000030 1c 29 1a 3f 89 d7 04 bf ad 2b a3 3f 7d b3 72 bf
       0.6021898 -0.5189138 1.2747704 -0.9480513
000040 26 47 b3 bd 39 5f 09 bf 29 a3 a6 be 75 77 aa bd
       -0.08753805 -0.53660923 -0.32546356 -0.08323566
000050 19 7d b1 bf 8f 15 c0 3e 10 84 a0 3e 92 d6 03 3d
       -1.3866302 0.37516448 0.31350756 0.032187052
000060 e9 b7 ea 3d e2 b7 ea 3e f5 02 98 bf e3 52 3a 3e
       0.11460859 0.45843416 -1.1875902 0.18195681
000070 44 0c cc bd fd e4 dc 3d c9 1f cc bd ab 8f 12 3e
       -0.09963277 0.107858635 -0.09967 0.14312617
000080 bf 19 91 bf 6e ee 5b bd af 8a 39 3d b4 7a c4 3d
       -1.1335982 -0.05369418 0.045298275 0.09593716
000090 05 e7 b3 bd 92 f5 8d 3e c3 d9 dc be 1e 7b 8e be
       -0.08784298 0.27726418 -0.4313489 -0.27828306
0000a0 18 e3 c3 bc f1 3b 84 bc fa c8 12 be 2d 60 ea bc
       -0.023911998 -0.016141864 -0.14334479 -0.028610313
0000b0 20 f3 47 bf 00 ef 10 3e 0b 04 88 be f3 66 76 be
       -0.78105354 0.14153671 -0.26565585 -0.2406271
0000c0 e3 51 0e 3d ff e5 34 bf 83 91 05 3e 67 df 8e bc
       0.034746062 -0.70663446 0.1304379 -0.01744051
0000d0 41 64 db 3e 3d 3e a6 3d 3e b1 3a be 50 f9 a8 be
       0.42849925 0.0811734 -0.18231675 -0.3300271
0000e0 9f da f2 bf e5 32 e0 3e 81 2a ee be c5 b1 b5 3e
       -1.8972968 0.4378883 -0.46516803 0.3548719
0000f0 51 f6 08 3e f6 80 40 3d 1c c3 a2 3f 96 7c 09 be
       0.13375212 0.046997987 1.2715793 -0.13426432
000100 c5 40 86 be bc 11 26 bd 33 2b a4 bd c6 2e 23 3f
       -0.2622129 -0.040544257 -0.08016052 0.63743246
000110 e4 2e 99 bf 9d c7 89 3c b0 2e 91 be 61 84 6f bd
       -1.1967435 0.016818816 -0.28355932 -0.058475856
000120 07 b4 25 be 30 80 84 3e 71 8c 53 3e 35 f9 bb be
       -0.16181956 0.2587905 0.20659043 -0.36713567
000130 35 51 82 3d a9 5e ba bd 0f a6 5a be 42 70 15 3f
       0.06363145 -0.09100086 -0.21352409 0.58374417
000140 e4 d1 d4 3e 7e 6e 86 3d c0 30 96 be 84 97 3f bd
       0.41566384 0.065640435 -0.29334068 -0.046775356
000150 d1 6f f8 3e 4e 3d 3b bf 1c cb 3a 3f f0 f1 8b bd
       0.4852281 -0.7314042 0.7296617 -0.06833255
000160 4b 1f f1 3c 9c d7 54 3d ed ed 7f 3d c6 a9 32 3f
       0.029433867 0.051963434 0.062482763 0.69790304
000170 9a 77 66 3f 1b c6 ad 3a 74 e1 83 3e 9c be 1e bc
       0.9002625 0.0013257893 0.25757945 -0.0096889995
000180 82 b3 af 3c 68 f2 26 3f 70 10 81 bf 02 cd 80 be
       0.0214479 0.6521363 -1.0083141 -0.2515641
000190 88 c1 80 3e 90 c4 87 3d ea 0e 1e be 03 54 05 3f
       0.25147653 0.06629288 -0.15435377 0.52081317
0001a0 41 4f 19 be ec a4 39 3e a1 b8 9a bd 77 a8 13 3d
       -0.14971639 0.18129319 -0.075547464 0.036049332
0001b0 4a 67 e9 3e 26 cd 96 3f d6 95 6c 3e 8c 55 14 be
       0.45586616 1.1781356 0.23104033 -0.14485759
0001c0 19 0f 2a be 45 7a 07 be db 55 73 bf 93 bc f6 be
       -0.16607322 -0.13230236 -0.9505288 -0.48190746
0001d0 4a 22 da be dc 9e d8 be ec bd 08 3f af f2 dd 3d
       -0.42604285 -0.423087 0.534148 0.10837304
0001e0 c9 02 b0 3e 55 83 49 3f e3 75 9c 3f 8f df 18 be
       0.34377125 0.7871602 1.2223476 -0.14929031
0001f0 eb bc 82 be a1 d5 8e be 84 4f 37 bd 92 07 1a 3f
       -0.25534758 -0.2789736 -0.044753566 0.601678
000200 80 e3 86 3f e9 3a 92 3d 39 22 7e 3e 6d a9 8f bc
       1.0538177 0.071401425 0.24817742 -0.017536843
000210 a4 8e 4a bb 47 72 90 3e 42 ba 0d 3f 78 7a 9f be
       -0.0030907774 0.28212187 0.5536233 -0.31148124
000220 3b 23 4f be d7 97 01 be b2 a6 47 be ff 13 2f 3f
       -0.20228283 -0.12655579 -0.19497183 0.68389887
000230 8f 4f 07 3e ef 0f 47 3d fc cb 86 3e d0 17 d4 3d
       0.13213943 0.04859918 0.26327503 0.103561044
000240 69 0d 37 3f 65 0e cd bd dd 4a 07 3f 61 1d 24 be
       0.7150484 -0.10012511 0.5284861 -0.16026832
000250 98 67 e6 3d 9f 01 9d bc 77 02 04 3f 32 a7 89 be
       0.11250228 -0.019165812 0.5156626 -0.26885372
000260 3b 4b a9 bc 3a 69 0d bd 84 d4 47 be 47 72 9d bd
       -0.020665755 -0.03452418 -0.19514662 -0.07687812
000270 f7 be 4c bf b5 b4 8c be ce 73 35 bf 44 a3 b9 bd
       -0.7997889 -0.2748162 -0.7087983 -0.090643436
000280 65 37 1a be f0 ff 6f 3d 81 17 0e 3f a3 1f 8d be
       -0.15060194 0.05859369 0.55504614 -0.275632
000290 fa f6 18 3d 38 81 01 3f 9a d6 61 be de 6a 39 3e
       0.03734491 0.505878 -0.2205452 0.18107173
0002a0 c5 1a 63 be a1 4c 46 bf 53 38 1e bf 38 6d 28 be
       -0.2217818 -0.77460676 -0.61804694 -0.16447914
0002b0 9f 63 ce 3e a7 a1 11 3e 5c 9b 4f 3f 1e ad 32 bc
       0.4031038 0.14221822 0.81096435 -0.010905532
0002c0 5d 5b aa 3e fb dd 55 be e9 13 39 3e 43 15 02 3c
       0.3327283 -0.2088546 0.18074001 0.0079396395
0002d0 22 f3 9a be 1e f6 76 3e db 44 03 3f e6 8f f7 bd
       -0.3026362 0.24117324 0.5127694 -0.12087993
0002e0 e5 69 b2 3e 7d bf 14 3c e8 5e 36 be b5 dc ba 3e
       0.34846416 0.0090788575 -0.17809641 0.3649651
0002f0 00 10 9b 3f 13 f8 ab be 5f 97 27 be ae 04 6b be
       1.2114258 -0.33587703 -0.16366337 -0.22951004
000300 b7 55 8c bc 20 35 83 bf de 57 93 3f fa bc d7 be
       -0.017130716 -1.0250587 1.151119 -0.42136365
000310 97 8e 94 3e bc 05 b1 bd c7 aa c4 3e b5 28 14 bf
       0.29015037 -0.08643672 0.38411543 -0.57874614
000320 0b 11 6e 3e 9c de 5e 3e 27 5e ed 3c d6 17 c6 3c
       0.23248689 0.21764606 0.02897556 0.024181288
000330 df e2 15 bf 8b 3b df 3e 4f 96 a0 bf 1a fa 98 bd
       -0.585493 0.43600115 -1.254587 -0.07469578
000340 6a 4e c7 3c e9 50 54 3d a3 76 81 bc 20 1d 71 3f
       0.024329383 0.051834974 -0.01580364 0.94185066
000350 18 21 3c bf af 10 49 3e 6d fd c4 be 55 1d 2f 3e
       -0.73488 0.1963527 -0.384746 0.17101033
000360 b5 cf 8c 3d 44 2c f3 be a9 e7 96 3d cb d1 45 bd
       0.068755545 -0.4749471 0.073684044 -0.048295777
000370 a0 3f 02 bf 00 5f 28 be f7 26 0d 3e b9 e6 b0 3f
       -0.50878334 -0.1644249 0.13784395 1.3820411
000380 20 12 b1 3f 08 6f 2f be db 94 cd 3e 4d 26 90 bd
       1.3833656 -0.17132199 0.4015263 -0.07038555
000390 2d 35 1b bf 11 90 8b be b2 ec f7 3e f0 df 07 bf
       -0.60628015 -0.2725835 0.48422772 -0.53076077
0003a0 9c 1c 08 3f e3 fe 78 bd 2d 10 03 bf 3c 2f 17 3f
       0.53168654 -0.060789954 -0.5119656 0.5905645
0003b0 09 b6 ea 3d 7d bc 81 3c 9a fd 27 3d 84 d8 44 3d
       0.11460502 0.015836949 0.041013338 0.048058048
0003c0 c0 f2 6a 3f f5 47 b7 3c ae 83 89 3f e7 1b 9d 3d
       0.9177666 0.022373179 1.074331 0.076713376
0003d0 b7 a7 28 be 71 79 68 bd 49 1e 9f be 77 6d 45 bf
       -0.16470228 -0.05675644 -0.31077793 -0.77120155
0003e0 04 7a 27 be 5f de 5c 3e f4 17 08 bf a9 9b f1 bd
       -0.16355139 0.21569203 -0.5316155 -0.11797268
0003f0 d2 7a af be a0 85 e2 3e 08 87 86 be 49 a7 12 bd
       -0.34273392 0.44242573 -0.26274896 -0.035804067

fc1.bias f4 [64]
000000 1a 4b db 3d e6 e6 cc 3d 82 ec 89 3f 74 1a 1f bb
       0.10707684 0.10004978 1.0775301 -0.0024277242
000010 b4 5d 12 3f 15 3c d1 3e 44 1b 0f 3f dc b2 16 bd
       0.5717423 0.4086615 0.5590098 -0.036791667
000020 b0 f7 20 3e 8a 96 85 3e 61 65 09 3d fa bc 29 3f
       0.15719485 0.26091415 0.033543948 0.6630398
000030 f6 60 12 3f e9 b2 45 3f 74 6b 02 3f 21 96 59 3f
       0.571792 0.7722612 0.5094521 0.84994704
000040 31 1f 55 3f 2c 54 22 3f f2 1f a8 be 5b 66 ca 3e
       0.8325072 0.63409686 -0.32836872 0.39531216
000050 66 3f e3 bd 73 db 67 3f 81 b2 6f 3f ba ac a0 be
       -0.11096077 0.9056923 0.9363175 -0.3138178
000060 7b 55 f3 bc 86 2c 40 3e 53 55 0b be 31 3f a2 bd
       -0.029703846 0.18766984 -0.13606767 -0.07922209
000070 ef f3 9a be b1 c5 bb 3c 6f 11 52 3d 70 3d 19 3f
       -0.30264232 0.022921415 0.051286157 0.5985937
000080 7d a8 dd 3e a2 19 76 be ad 6b c2 3e 22 98 41 3f
       0.4329261 -0.24033216 0.37972775 0.7562276
000090 ba 34 20 3f 6a 4d 8b 3e e2 35 59 be 6d 7c 19 3f
       0.62580454 0.272075 -0.21211961 0.59955484
0000a0 57 b7 17 3f 27 b3 9a 3d 5f e7 70 be 5d fe 6e be
       0.5926413 0.07553702 -0.23525761 -0.2333922
0000b0 f7 a9 bc 3e 83 7e 32 be 85 60 1a bf 45 f4 87 be
       0.36848423 -0.17431073 -0.6030353 -0.2655355
0000c0 8c 48 38 be a8 55 1a 3e 19 a0 62 3f 1d b2 dd 3d
       -0.17996424 0.15071738 0.8852554 0.10824988
0000d0 ff 11 36 be 59 36 8b be a8 2c 46 be a2 ec 22 3f
       -0.17780302 -0.271899 -0.19352973 0.63642323
0000e0 40 a2 ee bd 8d d3 16 be e9 96 73 3e 26 59 68 3e
       -0.116520405 -0.14729138 0.23788036 0.22690257
0000f0 ab 37 59 3f 0c 10 49 3f c0 ba f3 3e a4 3f 97 be
       0.8485057 0.7854011 0.47603416 -0.2954074

fc2.weight f4 [64, 64]
000000 e3 81 06 3e f0 15 6a 3d ce 2a 9e be 17 83 28 3d
       0.13135485 0.057149827 -0.30892032 0.041140642
000010 70 a1 b1 3d 59 8f 32 3d 79 4d c8 be 11 c5 f0 bd
       0.0867337 0.04359374 -0.39121607 -0.117563374
000020 ff 41 fc 3e b5 72 98 3e 6f b0 57 be 78 a9 1f 3c
       0.492691 0.29775015 -0.21063398 0.009744994
000030 e6 18 6b 3d c8 0a e1 bd e7 9d 8e 3e 6f 32 ae bc
       0.057396792 -0.109883845 0.27854845 -0.021264283
000040 c6 ad 62 be 25 5d 31 bc 9b b3 b5 3d c1 c9 2c 3e
       -0.22136602 -0.01082543 0.08872148 0.16873838
000050 e1 dc f5 be ae 44 bf bd 1a 83 49 be 20 4d 34 be
       -0.4802008 -0.093392715 -0.19678918 -0.17607546
000060 da 34 08 3e 4b 82 6e be 43 f3 cb 3d 60 33 bc 3c
       0.13301411 -0.2329189 0.09958508 0.022973716
000070 e4 d2 9a 3c fb ee a1 be c9 40 5a be fc c5 2d 3e
       0.018899389 -0.3162764 -0.21313776 0.16970056
000080 1d a3 b3 3e b8 ed 6b 3e 92 6e bd 3a de 8c 4f 3d
       0.35085383 0.23039901 0.0014452508 0.05067145
000090 e8 24 e6 3d 05 63 3f be 71 6c 36 bd ed 39 46 be
       0.11237508 -0.18690117 -0.04453701 -0.19358034
0000a0 4d 0f 62 be 7b 8c a7 3d 0e 9e 4f be 17 ab a1 be
       -0.2207615 0.081810914 -0.20275137 -0.31575844
0000b0 44 50 30 be 43 c6 fa be 34 b5 2a be 7f 71 83 be
       -0.17218119 -0.48979387 -0.16670686 -0.25672528
0000c0 9a a7 a1 3e e4 27 6d be 99 22 e5 be 50 4c 11 3e
       0.31573182 -0.23159748 -0.44752958 0.14189267
0000d0 cc 9a a1 be f3 9f fd bd 33 bd d8 3e 5c fb 47 3d
       -0.31563413 -0.123840235 0.42331848 0.0488237
0000e0 8f cb f8 be ac 73 d0 be f2 80 36 be 30 40 fe bc
       -0.48592803 -0.4071325 -0.17822626 -0.031036466
0000f0 60 5b 60 3c 3f 5c aa bc c1 43 a7 3e a3 21 2a bf
       0.0136936605 -0.02079594 0.3266888 -0.66457576
000100 ee 45 fe 3d 65 06 09 3d a3 3b 45 3d 15 e6 15 3e
       0.12415682 0.033453364 0.048152577 0.1463855
000110 3c fc b3 3d ee 43 e7 3e 70 6f 30 3e 47 f1 53 bb
       0.08788344 0.45169014 0.1723001 -0.0032339857
000120 b9 12 e8 3d f8 c8 fc 3c 1c 33 61 3d 58 66 f1 3d
       0.11331696 0.030857548 0.054980382 0.11787099
000130 7a 7d 7a 3e 34 72 b7 3e b0 3b 75 3e 5b a0 66 3e
       0.24461928 0.35829318 0.2394855 0.22522108
000140 68 4f 9f 3e 36 29 c5 3e ca 63 39 be f4 15 42 3e
       0.3111527 0.38508004 -0.18104473 0.18953687
000150 4e 53 e7 3a e3 d7 80 3e 0b 8d 15 3e 3a aa 9e be
       0.0017648728 0.25164708 0.14604585 -0.30989248
000160 02 c0 09 be 7d a0 d1 bb 13 3d 0e be e8 b8 33 be
       -0.13452151 -0.0063973055 -0.13890485 -0.17551005
000170 bd d6 25 3e 64 b1 e8 3d e2 9a b8 3d 6f 9a b6 3d
       0.16195197 0.113619596 0.090139166 0.089161746
000180 87 9e 14 be e9 d0 9d be 9e bf a0 3e 3a 80 95 3d
       -0.14513598 -0.30823448 0.31396192 0.07299848
000190 94 17 37 3e 45 88 27 3e d3 68 ea 3d 49 76 f4 3e
       0.17880088 0.16360576 0.11445775 0.47746494
0001a0 40 8d 5b 3e ec 68 9e 3c d7 81 9f bd 85 29 98 3b
       0.21440601 0.01933714 -0.07788437 0.0046436214
0001b0 cf b9 6a 3e a0 9f 67 be 30 5e 3c 3e b2 85 18 bd
       0.22922443 -0.22619486 0.18395305 -0.037236877
0001c0 08 33 83 bd 57 4c 85 3d cb 52 22 3d 71 0b a9 bd
       -0.06406218 0.06508701 0.03962974 -0.082541354
0001d0 c3 13 42 be 0b aa 8e be 51 75 53 bc 46 a5 cf 3e
       -0.18952851 -0.27864107 -0.012906388 0.4055578
0001e0 10 cc cf be 5c 3a 32 be 3e 18 25 3e 66 cb 8f 3d
       -0.40585375 -0.17405075 0.16122529 0.07021217
0001f0 67 9b ff 3d f6 91 83 3e f0 4d 04 3f 8a eb a9 be
       0.124808125 0.25697297 0.51681423 -0.33187515
000200 f6 39 41 3d 28 43 21 3e 64 92 23 3d ef a2 8d bd
       0.047174416 0.15748274 0.03993453 -0.06915843
000210 57 6a 76 3d 0e be da bd fd 67 ff 3d bf 1b 4f 3e
       0.060160007 -0.10680781 0.12471006 0.20225428
000220 b9 ee 10 3d 64 e1 69 3e da d4 3c 3c 7f 33 dc 3d
       0.035383914 0.22839886 0.011525357 0.107520096
000230 f2 f7 89 be 1f d8 08 3d 7c 4f 33 be 43 d2 06 3c
       -0.2694698 0.033409234 -0.1751079 0.008228841
000240 23 86 75 3d bb 9b d5 bd db e1 d3 3e b1 ee 3b bd
       0.059942376 -0.10430094 0.41383252 -0.04588193
000250 35 f3 92 3d 20 0e bf bd 15 5b de 3c 0b 75 e2 3e
       0.07175294 -0.09328866 0.02714304 0.44229922
000260 b0 8f 94 3e f7 2f 9f 3c 0f 94 3d 3e 61 9e 7b 3e
       0.29015875 0.019432051 0.18513511 0.24572136
000270 80 8b a8 3c 4f 15 c4 bd e3 fa c4 3d 54 72 0a 3e
       0.020574331 -0.09574377 0.09618165 0.13520175
000280 3d c4 7d 3d 14 2e 86 3e 57 32 68 be aa 66 53 bc
       0.061954726 0.2620703 -0.22675453 -0.012902895
000290 c3 6f 87 bd 51 71 cd 3c 15 2b b3 3d 66 b0 c2 bd
       -0.06613114 0.025078448 0.087484516 -0.095063016
0002a0 7e 34 25 be 36 23 23 3e f8 4c bd bc 53 ad b6 3e
       -0.16133305 0.159314 -0.02310799 0.3567911
0002b0 64 e9 54 3d 7a cd 8c 3e 15 f3 84 bc 9f 58 b4 bc
       0.05198039 0.27500516 -0.016229192 -0.022014914
0002c0 6f f6 99 3e 41 f8 1d 3e fb 7e f8 3c 51 25 bd bc
       0.30070826 0.15426733 0.030333987 -0.023089083
0002d0 9a 60 1b 3e d8 2c 91 3e 6a 86 d3 3c 3b 97 89 be
       0.1517357 0.28354526 0.02582093 -0.26873192
0002e0 de 5a 9c 3e 62 97 ea 3d 1e 95 58 3e 46 ed 99 3e
       0.30538076 0.11454655 0.21150634 0.30063838
0002f0 f8 19 3f 3e 5e 96 83 bd 37 c1 a4 bd 46 ec 11 be
       0.1866225 -0.06425165 -0.08044665 -0.14250287
000300 f4 8c 28 3e 65 b4 85 3d 1c bd 21 3e 66 b0 e7 3c
       0.1646002 0.06528548 0.15794796 0.028282356
000310 08 ff ad 3d 9a 21 9f 3e 28 47 3f 3c 04 c6 87 bd
       0.08495909 0.31080323 0.01167468 -0.06629565
000320 b9 aa 8a 3e 58 3f f0 3d 4b e1 b9 bb a8 0d 36 3e
       0.27083376 0.11730832 -0.005672609 0.17778647
000330 c4 21 6b 3e 67 de cc 3e fb 9b d8 3e 85 10 c2 3d
       0.229621 0.4001343 0.42306504 0.09475807
000340 22 79 96 3e 2d 72 fe 3e a4 92 de bd 79 43 b4 3c
       0.29389292 0.49696484 -0.10867813 0.02200483
000350 b4 e2 ca bc 3f 82 d3 3d 42 5d 82 3e de 76 4a be
       -0.024766304 0.10327577 0.25461775 -0.19771907
000360 10 8d 8a be 64 9c a4 bd 82 e1 b2 3c 10 1f 44 be
       -0.27060747 -0.08037642 0.021836046 -0.19152474
000370 b5 8f 2a 3d cd 33 3a 3e 45 55 66 3e 86 77 84 3e
       0.041640956 0.18183823 0.22493465 0.2587244
000380 33 f3 c4 3d 76 67 7e be b1 87 2d 3e 8f 88 67 3e
       0.09616699 -0.24844155 0.16946293 0.22610687
000390 35 de 8e 3e 6b 09 72 bc fc d5 67 3d 5f 1a c7 3e
       0.27903906 -0.014772753 0.056600556 0.38887307
0003a0 58 09 8a 3e 26 a4 cf 3d 03 8d 25 3e c8 ff 4f be
       0.26960254 0.10138731 0.16167073 -0.20312417
0003b0 72 8f a6 3c 3d 52 6c be 47 5b 91 3d a6 e9 29 3d
       0.020332072 -0.23078246 0.07097488 0.04148259
0003c0 a8 a8 4b bc 22 cd 07 be 66 6c 21 3e 25 94 02 3e
       -0.0124303475 -0.13261846 0.15764007 0.12751825
0003d0 9c 21 55 bc 32 bd 7e be 93 14 b8 3b 74 fe cf 3e
       -0.013008501 -0.2487686 0.005617687 0.4062382
0003e0 ff 42 bc be 34 76 a1 be ea e6 4c bc df d5 83 bd
       -0.36769864 -0.31535494 -0.012506226 -0.06437277
0003f0 6e 86 a9 bc cc 62 c3 3e ac b6 9a 3e 29 e5 67 be
       -0.020693984 0.38161314 0.30217493 -0.22646011

fc2.bias f4 [64]
000000 2a 7b de 3d df 7b c8 3e 8b f8 25 3d cf 2d e8 3e
       0.108633354 0.39157006 0.040520232 0.4534745
000010 89 40 ac 3e 24 a8 02 3f f7 32 a2 3e 9d a9 aa 3e
       0.33642986 0.5103781 0.31679508 0.3333253
000020 08 6c 9e bd 73 03 08 3f 3d 27 f3 bd e1 86 a8 bd
       -0.07735449 0.53130263 -0.118727185 -0.08228851
000030 a7 a3 99 3c ef 5b 10 be a9 74 00 3f 81 94 9e 3e
       0.018754793 -0.1409757 0.5017801 0.30972674
000040 67 b2 2c 3e c0 b1 ae 3c 14 85 bd 3e 19 ba 08 3f
       0.1686493 0.021324992 0.37015593 0.5340896
000050 ee ae e4 3e 17 5c 80 3e c3 b0 24 be 17 06 9b 3e
       0.4466471 0.2507026 -0.16083054 0.30278084
000060 61 32 84 bd 88 4f dd bd e5 e1 d6 3e 85 f6 89 3e
       -0.064549215 -0.10806185 0.4196922 0.26945892
000070 fb 80 fc bd 3f 1a 9f 3e 2c af a6 bd 87 0c ea 3e
       -0.123292886 0.31074712 -0.0813888 0.45712683
000080 36 15 b3 3e f2 bf fc bb db f0 fd ba 10 e0 98 3e
       0.3497712 -0.0077133114 -0.0019374149 0.29858446
000090 79 a1 d1 bc f0 ed e6 3e 12 d9 4c 3e 5a 2b 39 be
       -0.025589691 0.45103407 0.20004681 -0.18082944
0000a0 fe 1b 92 3e 61 f4 ed 3e 1d f2 55 be af 81 16 3c
       0.2853698 0.4647551 -0.2089314 0.009186192
0000b0 47 da 91 3e fa 60 07 3f f7 d1 06 3f 5a 3d 63 3e
       0.28486845 0.5288235 0.5266413 0.22191373
0000c0 4b 0a 14 be c8 a7 fe 3e 5f dc 98 3d cf 61 05 bc
       -0.14457051 0.49737382 0.074639075 -0.008140995
0000d0 2e 61 0c be 05 eb 01 3f 4f 2b 82 3e 2f 3e 66 bb
       -0.13708946 0.50749236 0.25423667 -0.003513228
0000e0 ab ce 06 be 20 2a 92 3d 87 8d a1 3d cb 68 aa bc
       -0.13164775 0.07136941 0.07888322 -0.020801922
0000f0 72 44 b2 3e 82 76 9f bd f0 6c d4 3e e3 f7 84 3e
       0.34817845 -0.077862754 0.41489363 0.25970373

fc3.weight f4 [1, 64]
000000 1b b3 89 bf 53 31 a7 3e 61 4c 6c be fb 93 c1 3e
       -1.0757784 0.3265482 -0.23076011 0.37808213
000010 3d f4 db 3e 49 d4 b5 3e d9 68 e2 3e 04 08 9f 3e
       0.42959777 0.35513523 0.44220617 0.31060803
000020 06 37 49 bf 5f 09 b3 3e f9 ca d9 be 7d 30 d3 be
       -0.78599584 0.34968087 -0.42537668 -0.4124793
000030 38 5d 14 bf 65 1e a6 be 2a b9 a5 3e 7d f2 d4 3f
       -0.5795474 -0.32445064 0.3236783 1.6636502
000040 a9 9b 61 bf c6 e5 68 bf b6 17 92 3e 4d 35 c5 3e
       -0.88128144 -0.90975606 0.28533715 0.38517228
000050 49 41 6c 3f 8e df 6f 3f a8 09 2b bf 9b db e3 3e
       0.9228712 0.9370049 -0.6681161 0.44503483
000060 7b 6c 05 bf 5d 06 ad bf 7c ff 11 3f 97 51 9c 3f
       -0.52118653 -1.3517567 0.57030463 1.2212399
000070 a4 bf f0 be 36 d5 2a 3f 04 a2 a0 be 81 9f d9 3e
       -0.4702121 0.66731584 -0.31373608 0.42504504
000080 f0 0e b3 3e 48 c4 96 bf e9 a1 ad bf d8 92 02 3f
       0.34972334 -1.177865 -1.3565036 0.51005316
000090 53 3e 8c bf bc 8b 93 3e 18 79 31 bf fd 6d b0 be
       -1.095652 0.28817546 -0.693254 -0.34458914
0000a0 2f 50 91 3e 25 8a e9 3e e6 08 23 bf 28 54 51 bf
       0.28381488 0.45613208 -0.6368545 -0.8176904
0000b0 87 2b b5 3e c8 c4 c2 3e 07 69 d8 3e e9 97 d8 3e
       0.3538477 0.38040757 0.4226763 0.42303398
0000c0 04 bb 90 bf a0 a8 ae 3e ad 03 76 3f e3 53 75 bf
       -1.1307073 0.34113026 0.9609936 -0.95831126
0000d0 f2 3c b7 be 6f b8 dc 3e 84 13 d6 3f 5a 7d d5 be
       -0.35788685 0.43109462 1.6724706 -0.41697198
0000e0 60 22 3d bf 31 15 eb bf 4f d7 86 bf b3 91 fd be
       -0.7388058 -1.8365842 -1.0534457 -0.49525222
0000f0 93 b2 b8 3e 4b a4 dd be 3d b8 c5 3e 48 a2 8d 3f
       0.3607374 -0.43289408 0.38617125 1.1065149
